{"format": "layers-model", "generatedBy": "keras v2.2.4", "convertedBy": "TensorFlow.js Converter v3.12.0", "modelTopology": {"keras_version": "2.2.4", "backend": "tensorflow", "model_config": {"class_name": "Model", "config": {"layers": [{"class_name": "InputLayer", "config": {"dtype": "float32", "batch_input_shape": [null, null, null, 3], "name": "input_4", "sparse": false}, "inbound_nodes": [], "name": "input_4"}, {"class_name": "ZeroPadding2D", "config": {"padding": [[3, 3], [3, 3]], "trainable": false, "name": "padding_conv1", "data_format": "channels_last"}, "inbound_nodes": [[["input_4", 0, 0, {}]]], "name": "padding_conv1"}, {"class_name": "Conv2D", "config": {"kernel_constraint": null, "kernel_initializer": {"class_name": "VarianceScaling", "config": {"distribution": "uniform", "scale": 1.0, "seed": null, "mode": "fan_avg"}}, "name": "conv1", "bias_regularizer": null, "bias_constraint": null, "activation": "linear", "trainable": false, "data_format": "channels_last", "padding": "valid", "strides": [2, 2], "dilation_rate": [1, 1], "kernel_regularizer": null, "filters": 64, "bias_initializer": {"class_name": "Zeros", "config": {}}, "use_bias": false, "activity_regularizer": null, "kernel_size": [7, 7]}, "inbound_nodes": [[["padding_conv1", 0, 0, {}]]], "name": "conv1"}, {"class_name": "BatchNormalization", "config": {"beta_constraint": null, "gamma_initializer": {"class_name": "Ones", "config": {}}, "moving_mean_initializer": {"class_name": "Zeros", "config": {}}, "name": "bn_conv1", "epsilon": 1e-05, "trainable": false, "moving_variance_initializer": {"class_name": "Ones", "config": {}}, "freeze": true, "scale": true, "axis": 3, "gamma_regularizer": null, "gamma_constraint": null, "beta_initializer": {"class_name": "Zeros", "config": {}}, "beta_regularizer": null, "momentum": 0.99, "center": true}, "inbound_nodes": [[["conv1", 0, 0, {}]]], "name": "bn_conv1"}, {"class_name": "Activation", "config": {"activation": "relu", "trainable": false, "name": "conv1_relu"}, "inbound_nodes": [[["bn_conv1", 0, 0, {}]]], "name": "conv1_relu"}, {"class_name": "MaxPooling2D", "config": {"name": "pool1", "trainable": false, "data_format": "channels_last", "pool_size": [3, 3], "padding": "same", "strides": [2, 2]}, "inbound_nodes": [[["conv1_relu", 0, 0, {}]]], "name": "pool1"}, {"class_name": "Conv2D", "config": {"kernel_constraint": null, "kernel_initializer": {"class_name": "VarianceScaling", "config": {"distribution": "normal", "scale": 2.0, "seed": null, "mode": "fan_in"}}, "name": "res2a_branch2a", "bias_regularizer": null, "bias_constraint": null, "activation": "linear", "trainable": false, "data_format": "channels_last", "padding": "valid", "strides": [1, 1], "dilation_rate": [1, 1], "kernel_regularizer": null, "filters": 64, "bias_initializer": {"class_name": "Zeros", "config": {}}, "use_bias": false, "activity_regularizer": null, "kernel_size": [1, 1]}, "inbound_nodes": [[["pool1", 0, 0, {}]]], "name": "res2a_branch2a"}, {"class_name": "BatchNormalization", "config": {"beta_constraint": null, "gamma_initializer": {"class_name": "Ones", "config": {}}, "moving_mean_initializer": {"class_name": "Zeros", "config": {}}, "name": "bn2a_branch2a", "epsilon": 1e-05, "trainable": false, "moving_variance_initializer": {"class_name": "Ones", "config": {}}, "freeze": true, "scale": true, "axis": 3, "gamma_regularizer": null, "gamma_constraint": null, "beta_initializer": {"class_name": "Zeros", "config": {}}, "beta_regularizer": null, "momentum": 0.99, "center": true}, "inbound_nodes": [[["res2a_branch2a", 0, 0, {}]]], "name": "bn2a_branch2a"}, {"class_name": "Activation", "config": {"activation": "relu", "trainable": false, "name": "res2a_branch2a_relu"}, "inbound_nodes": [[["bn2a_branch2a", 0, 0, {}]]], "name": "res2a_branch2a_relu"}, {"class_name": "ZeroPadding2D", "config": {"padding": [[1, 1], [1, 1]], "trainable": false, "name": "padding2a_branch2b", "data_format": "channels_last"}, "inbound_nodes": [[["res2a_branch2a_relu", 0, 0, {}]]], "name": "padding2a_branch2b"}, {"class_name": "Conv2D", "config": {"kernel_constraint": null, "kernel_initializer": {"class_name": "VarianceScaling", "config": {"distribution": "normal", "scale": 2.0, "seed": null, "mode": "fan_in"}}, "name": "res2a_branch2b", "bias_regularizer": null, "bias_constraint": null, "activation": "linear", "trainable": false, "data_format": "channels_last", "padding": "valid", "strides": [1, 1], "dilation_rate": [1, 1], "kernel_regularizer": null, "filters": 64, "bias_initializer": {"class_name": "Zeros", "config": {}}, "use_bias": false, "activity_regularizer": null, "kernel_size": [3, 3]}, "inbound_nodes": [[["padding2a_branch2b", 0, 0, {}]]], "name": "res2a_branch2b"}, {"class_name": "BatchNormalization", "config": {"beta_constraint": null, "gamma_initializer": {"class_name": "Ones", "config": {}}, "moving_mean_initializer": {"class_name": "Zeros", "config": {}}, "name": "bn2a_branch2b", "epsilon": 1e-05, "trainable": false, "moving_variance_initializer": {"class_name": "Ones", "config": {}}, "freeze": true, "scale": true, "axis": 3, "gamma_regularizer": null, "gamma_constraint": null, "beta_initializer": {"class_name": "Zeros", "config": {}}, "beta_regularizer": null, "momentum": 0.99, "center": true}, "inbound_nodes": [[["res2a_branch2b", 0, 0, {}]]], "name": "bn2a_branch2b"}, {"class_name": "Activation", "config": {"activation": "relu", "trainable": false, "name": "res2a_branch2b_relu"}, "inbound_nodes": [[["bn2a_branch2b", 0, 0, {}]]], "name": "res2a_branch2b_relu"}, {"class_name": "Conv2D", "config": {"kernel_constraint": null, "kernel_initializer": {"class_name": "VarianceScaling", "config": {"distribution": "normal", "scale": 2.0, "seed": null, "mode": "fan_in"}}, "name": "res2a_branch2c", "bias_regularizer": null, "bias_constraint": null, "activation": "linear", "trainable": false, "data_format": "channels_last", "padding": "valid", "strides": [1, 1], "dilation_rate": [1, 1], "kernel_regularizer": null, "filters": 256, "bias_initializer": {"class_name": "Zeros", "config": {}}, "use_bias": false, "activity_regularizer": null, "kernel_size": [1, 1]}, "inbound_nodes": [[["res2a_branch2b_relu", 0, 0, {}]]], "name": "res2a_branch2c"}, {"class_name": "Conv2D", "config": {"kernel_constraint": null, "kernel_initializer": {"class_name": "VarianceScaling", "config": {"distribution": "normal", "scale": 2.0, "seed": null, "mode": "fan_in"}}, "name": "res2a_branch1", "bias_regularizer": null, "bias_constraint": null, "activation": "linear", "trainable": false, "data_format": "channels_last", "padding": "valid", "strides": [1, 1], "dilation_rate": [1, 1], "kernel_regularizer": null, "filters": 256, "bias_initializer": {"class_name": "Zeros", "config": {}}, "use_bias": false, "activity_regularizer": null, "kernel_size": [1, 1]}, "inbound_nodes": [[["pool1", 0, 0, {}]]], "name": "res2a_branch1"}, {"class_name": "BatchNormalization", "config": {"beta_constraint": null, "gamma_initializer": {"class_name": "Ones", "config": {}}, "moving_mean_initializer": {"class_name": "Zeros", "config": {}}, "name": "bn2a_branch2c", "epsilon": 1e-05, "trainable": false, "moving_variance_initializer": {"class_name": "Ones", "config": {}}, "freeze": true, "scale": true, "axis": 3, "gamma_regularizer": null, "gamma_constraint": null, "beta_initializer": {"class_name": "Zeros", "config": {}}, "beta_regularizer": null, "momentum": 0.99, "center": true}, "inbound_nodes": [[["res2a_branch2c", 0, 0, {}]]], "name": "bn2a_branch2c"}, {"class_name": "BatchNormalization", "config": {"beta_constraint": null, "gamma_initializer": {"class_name": "Ones", "config": {}}, "moving_mean_initializer": {"class_name": "Zeros", "config": {}}, "name": "bn2a_branch1", "epsilon": 1e-05, "trainable": false, "moving_variance_initializer": {"class_name": "Ones", "config": {}}, "freeze": true, "scale": true, "axis": 3, "gamma_regularizer": null, "gamma_constraint": null, "beta_initializer": {"class_name": "Zeros", "config": {}}, "beta_regularizer": null, "momentum": 0.99, "center": true}, "inbound_nodes": [[["res2a_branch1", 0, 0, {}]]], "name": "bn2a_branch1"}, {"class_name": "Add", "config": {"trainable": false, "name": "res2a"}, "inbound_nodes": [[["bn2a_branch2c", 0, 0, {}], ["bn2a_branch1", 0, 0, {}]]], "name": "res2a"}, {"class_name": "Activation", "config": {"activation": "relu", "trainable": false, "name": "res2a_relu"}, "inbound_nodes": [[["res2a", 0, 0, {}]]], "name": "res2a_relu"}, {"class_name": "Conv2D", "config": {"kernel_constraint": null, "kernel_initializer": {"class_name": "VarianceScaling", "config": {"distribution": "normal", "scale": 2.0, "seed": null, "mode": "fan_in"}}, "name": "res2b_branch2a", "bias_regularizer": null, "bias_constraint": null, "activation": "linear", "trainable": false, "data_format": "channels_last", "padding": "valid", "strides": [1, 1], "dilation_rate": [1, 1], "kernel_regularizer": null, "filters": 64, "bias_initializer": {"class_name": "Zeros", "config": {}}, "use_bias": false, "activity_regularizer": null, "kernel_size": [1, 1]}, "inbound_nodes": [[["res2a_relu", 0, 0, {}]]], "name": "res2b_branch2a"}, {"class_name": "BatchNormalization", "config": {"beta_constraint": null, "gamma_initializer": {"class_name": "Ones", "config": {}}, "moving_mean_initializer": {"class_name": "Zeros", "config": {}}, "name": "bn2b_branch2a", "epsilon": 1e-05, "trainable": false, "moving_variance_initializer": {"class_name": "Ones", "config": {}}, "freeze": true, "scale": true, "axis": 3, "gamma_regularizer": null, "gamma_constraint": null, "beta_initializer": {"class_name": "Zeros", "config": {}}, "beta_regularizer": null, "momentum": 0.99, "center": true}, "inbound_nodes": [[["res2b_branch2a", 0, 0, {}]]], "name": "bn2b_branch2a"}, {"class_name": "Activation", "config": {"activation": "relu", "trainable": false, "name": "res2b_branch2a_relu"}, "inbound_nodes": [[["bn2b_branch2a", 0, 0, {}]]], "name": "res2b_branch2a_relu"}, {"class_name": "ZeroPadding2D", "config": {"padding": [[1, 1], [1, 1]], "trainable": false, "name": "padding2b_branch2b", "data_format": "channels_last"}, "inbound_nodes": [[["res2b_branch2a_relu", 0, 0, {}]]], "name": "padding2b_branch2b"}, {"class_name": "Conv2D", "config": {"kernel_constraint": null, "kernel_initializer": {"class_name": "VarianceScaling", "config": {"distribution": "normal", "scale": 2.0, "seed": null, "mode": "fan_in"}}, "name": "res2b_branch2b", "bias_regularizer": null, "bias_constraint": null, "activation": "linear", "trainable": false, "data_format": "channels_last", "padding": "valid", "strides": [1, 1], "dilation_rate": [1, 1], "kernel_regularizer": null, "filters": 64, "bias_initializer": {"class_name": "Zeros", "config": {}}, "use_bias": false, "activity_regularizer": null, "kernel_size": [3, 3]}, "inbound_nodes": [[["padding2b_branch2b", 0, 0, {}]]], "name": "res2b_branch2b"}, {"class_name": "BatchNormalization", "config": {"beta_constraint": null, "gamma_initializer": {"class_name": "Ones", "config": {}}, "moving_mean_initializer": {"class_name": "Zeros", "config": {}}, "name": "bn2b_branch2b", "epsilon": 1e-05, "trainable": false, "moving_variance_initializer": {"class_name": "Ones", "config": {}}, "freeze": true, "scale": true, "axis": 3, "gamma_regularizer": null, "gamma_constraint": null, "beta_initializer": {"class_name": "Zeros", "config": {}}, "beta_regularizer": null, "momentum": 0.99, "center": true}, "inbound_nodes": [[["res2b_branch2b", 0, 0, {}]]], "name": "bn2b_branch2b"}, {"class_name": "Activation", "config": {"activation": "relu", "trainable": false, "name": "res2b_branch2b_relu"}, "inbound_nodes": [[["bn2b_branch2b", 0, 0, {}]]], "name": "res2b_branch2b_relu"}, {"class_name": "Conv2D", "config": {"kernel_constraint": null, "kernel_initializer": {"class_name": "VarianceScaling", "config": {"distribution": "normal", "scale": 2.0, "seed": null, "mode": "fan_in"}}, "name": "res2b_branch2c", "bias_regularizer": null, "bias_constraint": null, "activation": "linear", "trainable": false, "data_format": "channels_last", "padding": "valid", "strides": [1, 1], "dilation_rate": [1, 1], "kernel_regularizer": null, "filters": 256, "bias_initializer": {"class_name": "Zeros", "config": {}}, "use_bias": false, "activity_regularizer": null, "kernel_size": [1, 1]}, "inbound_nodes": [[["res2b_branch2b_relu", 0, 0, {}]]], "name": "res2b_branch2c"}, {"class_name": "BatchNormalization", "config": {"beta_constraint": null, "gamma_initializer": {"class_name": "Ones", "config": {}}, "moving_mean_initializer": {"class_name": "Zeros", "config": {}}, "name": "bn2b_branch2c", "epsilon": 1e-05, "trainable": false, "moving_variance_initializer": {"class_name": "Ones", "config": {}}, "freeze": true, "scale": true, "axis": 3, "gamma_regularizer": null, "gamma_constraint": null, "beta_initializer": {"class_name": "Zeros", "config": {}}, "beta_regularizer": null, "momentum": 0.99, "center": true}, "inbound_nodes": [[["res2b_branch2c", 0, 0, {}]]], "name": "bn2b_branch2c"}, {"class_name": "Add", "config": {"trainable": false, "name": "res2b"}, "inbound_nodes": [[["bn2b_branch2c", 0, 0, {}], ["res2a_relu", 0, 0, {}]]], "name": "res2b"}, {"class_name": "Activation", "config": {"activation": "relu", "trainable": false, "name": "res2b_relu"}, "inbound_nodes": [[["res2b", 0, 0, {}]]], "name": "res2b_relu"}, {"class_name": "Conv2D", "config": {"kernel_constraint": null, "kernel_initializer": {"class_name": "VarianceScaling", "config": {"distribution": "normal", "scale": 2.0, "seed": null, "mode": "fan_in"}}, "name": "res2c_branch2a", "bias_regularizer": null, "bias_constraint": null, "activation": "linear", "trainable": false, "data_format": "channels_last", "padding": "valid", "strides": [1, 1], "dilation_rate": [1, 1], "kernel_regularizer": null, "filters": 64, "bias_initializer": {"class_name": "Zeros", "config": {}}, "use_bias": false, "activity_regularizer": null, "kernel_size": [1, 1]}, "inbound_nodes": [[["res2b_relu", 0, 0, {}]]], "name": "res2c_branch2a"}, {"class_name": "BatchNormalization", "config": {"beta_constraint": null, "gamma_initializer": {"class_name": "Ones", "config": {}}, "moving_mean_initializer": {"class_name": "Zeros", "config": {}}, "name": "bn2c_branch2a", "epsilon": 1e-05, "trainable": false, "moving_variance_initializer": {"class_name": "Ones", "config": {}}, "freeze": true, "scale": true, "axis": 3, "gamma_regularizer": null, "gamma_constraint": null, "beta_initializer": {"class_name": "Zeros", "config": {}}, "beta_regularizer": null, "momentum": 0.99, "center": true}, "inbound_nodes": [[["res2c_branch2a", 0, 0, {}]]], "name": "bn2c_branch2a"}, {"class_name": "Activation", "config": {"activation": "relu", "trainable": false, "name": "res2c_branch2a_relu"}, "inbound_nodes": [[["bn2c_branch2a", 0, 0, {}]]], "name": "res2c_branch2a_relu"}, {"class_name": "ZeroPadding2D", "config": {"padding": [[1, 1], [1, 1]], "trainable": false, "name": "padding2c_branch2b", "data_format": "channels_last"}, "inbound_nodes": [[["res2c_branch2a_relu", 0, 0, {}]]], "name": "padding2c_branch2b"}, {"class_name": "Conv2D", "config": {"kernel_constraint": null, "kernel_initializer": {"class_name": "VarianceScaling", "config": {"distribution": "normal", "scale": 2.0, "seed": null, "mode": "fan_in"}}, "name": "res2c_branch2b", "bias_regularizer": null, "bias_constraint": null, "activation": "linear", "trainable": false, "data_format": "channels_last", "padding": "valid", "strides": [1, 1], "dilation_rate": [1, 1], "kernel_regularizer": null, "filters": 64, "bias_initializer": {"class_name": "Zeros", "config": {}}, "use_bias": false, "activity_regularizer": null, "kernel_size": [3, 3]}, "inbound_nodes": [[["padding2c_branch2b", 0, 0, {}]]], "name": "res2c_branch2b"}, {"class_name": "BatchNormalization", "config": {"beta_constraint": null, "gamma_initializer": {"class_name": "Ones", "config": {}}, "moving_mean_initializer": {"class_name": "Zeros", "config": {}}, "name": "bn2c_branch2b", "epsilon": 1e-05, "trainable": false, "moving_variance_initializer": {"class_name": "Ones", "config": {}}, "freeze": true, "scale": true, "axis": 3, "gamma_regularizer": null, "gamma_constraint": null, "beta_initializer": {"class_name": "Zeros", "config": {}}, "beta_regularizer": null, "momentum": 0.99, "center": true}, "inbound_nodes": [[["res2c_branch2b", 0, 0, {}]]], "name": "bn2c_branch2b"}, {"class_name": "Activation", "config": {"activation": "relu", "trainable": false, "name": "res2c_branch2b_relu"}, "inbound_nodes": [[["bn2c_branch2b", 0, 0, {}]]], "name": "res2c_branch2b_relu"}, {"class_name": "Conv2D", "config": {"kernel_constraint": null, "kernel_initializer": {"class_name": "VarianceScaling", "config": {"distribution": "normal", "scale": 2.0, "seed": null, "mode": "fan_in"}}, "name": "res2c_branch2c", "bias_regularizer": null, "bias_constraint": null, "activation": "linear", "trainable": false, "data_format": "channels_last", "padding": "valid", "strides": [1, 1], "dilation_rate": [1, 1], "kernel_regularizer": null, "filters": 256, "bias_initializer": {"class_name": "Zeros", "config": {}}, "use_bias": false, "activity_regularizer": null, "kernel_size": [1, 1]}, "inbound_nodes": [[["res2c_branch2b_relu", 0, 0, {}]]], "name": "res2c_branch2c"}, {"class_name": "BatchNormalization", "config": {"beta_constraint": null, "gamma_initializer": {"class_name": "Ones", "config": {}}, "moving_mean_initializer": {"class_name": "Zeros", "config": {}}, "name": "bn2c_branch2c", "epsilon": 1e-05, "trainable": false, "moving_variance_initializer": {"class_name": "Ones", "config": {}}, "freeze": true, "scale": true, "axis": 3, "gamma_regularizer": null, "gamma_constraint": null, "beta_initializer": {"class_name": "Zeros", "config": {}}, "beta_regularizer": null, "momentum": 0.99, "center": true}, "inbound_nodes": [[["res2c_branch2c", 0, 0, {}]]], "name": "bn2c_branch2c"}, {"class_name": "Add", "config": {"trainable": false, "name": "res2c"}, "inbound_nodes": [[["bn2c_branch2c", 0, 0, {}], ["res2b_relu", 0, 0, {}]]], "name": "res2c"}, {"class_name": "Activation", "config": {"activation": "relu", "trainable": false, "name": "res2c_relu"}, "inbound_nodes": [[["res2c", 0, 0, {}]]], "name": "res2c_relu"}, {"class_name": "Conv2D", "config": {"kernel_constraint": null, "kernel_initializer": {"class_name": "VarianceScaling", "config": {"distribution": "normal", "scale": 2.0, "seed": null, "mode": "fan_in"}}, "name": "res3a_branch2a", "bias_regularizer": null, "bias_constraint": null, "activation": "linear", "trainable": false, "data_format": "channels_last", "padding": "valid", "strides": [2, 2], "dilation_rate": [1, 1], "kernel_regularizer": null, "filters": 128, "bias_initializer": {"class_name": "Zeros", "config": {}}, "use_bias": false, "activity_regularizer": null, "kernel_size": [1, 1]}, "inbound_nodes": [[["res2c_relu", 0, 0, {}]]], "name": "res3a_branch2a"}, {"class_name": "BatchNormalization", "config": {"beta_constraint": null, "gamma_initializer": {"class_name": "Ones", "config": {}}, "moving_mean_initializer": {"class_name": "Zeros", "config": {}}, "name": "bn3a_branch2a", "epsilon": 1e-05, "trainable": false, "moving_variance_initializer": {"class_name": "Ones", "config": {}}, "freeze": true, "scale": true, "axis": 3, "gamma_regularizer": null, "gamma_constraint": null, "beta_initializer": {"class_name": "Zeros", "config": {}}, "beta_regularizer": null, "momentum": 0.99, "center": true}, "inbound_nodes": [[["res3a_branch2a", 0, 0, {}]]], "name": "bn3a_branch2a"}, {"class_name": "Activation", "config": {"activation": "relu", "trainable": false, "name": "res3a_branch2a_relu"}, "inbound_nodes": [[["bn3a_branch2a", 0, 0, {}]]], "name": "res3a_branch2a_relu"}, {"class_name": "ZeroPadding2D", "config": {"padding": [[1, 1], [1, 1]], "trainable": false, "name": "padding3a_branch2b", "data_format": "channels_last"}, "inbound_nodes": [[["res3a_branch2a_relu", 0, 0, {}]]], "name": "padding3a_branch2b"}, {"class_name": "Conv2D", "config": {"kernel_constraint": null, "kernel_initializer": {"class_name": "VarianceScaling", "config": {"distribution": "normal", "scale": 2.0, "seed": null, "mode": "fan_in"}}, "name": "res3a_branch2b", "bias_regularizer": null, "bias_constraint": null, "activation": "linear", "trainable": false, "data_format": "channels_last", "padding": "valid", "strides": [1, 1], "dilation_rate": [1, 1], "kernel_regularizer": null, "filters": 128, "bias_initializer": {"class_name": "Zeros", "config": {}}, "use_bias": false, "activity_regularizer": null, "kernel_size": [3, 3]}, "inbound_nodes": [[["padding3a_branch2b", 0, 0, {}]]], "name": "res3a_branch2b"}, {"class_name": "BatchNormalization", "config": {"beta_constraint": null, "gamma_initializer": {"class_name": "Ones", "config": {}}, "moving_mean_initializer": {"class_name": "Zeros", "config": {}}, "name": "bn3a_branch2b", "epsilon": 1e-05, "trainable": false, "moving_variance_initializer": {"class_name": "Ones", "config": {}}, "freeze": true, "scale": true, "axis": 3, "gamma_regularizer": null, "gamma_constraint": null, "beta_initializer": {"class_name": "Zeros", "config": {}}, "beta_regularizer": null, "momentum": 0.99, "center": true}, "inbound_nodes": [[["res3a_branch2b", 0, 0, {}]]], "name": "bn3a_branch2b"}, {"class_name": "Activation", "config": {"activation": "relu", "trainable": false, "name": "res3a_branch2b_relu"}, "inbound_nodes": [[["bn3a_branch2b", 0, 0, {}]]], "name": "res3a_branch2b_relu"}, {"class_name": "Conv2D", "config": {"kernel_constraint": null, "kernel_initializer": {"class_name": "VarianceScaling", "config": {"distribution": "normal", "scale": 2.0, "seed": null, "mode": "fan_in"}}, "name": "res3a_branch2c", "bias_regularizer": null, "bias_constraint": null, "activation": "linear", "trainable": false, "data_format": "channels_last", "padding": "valid", "strides": [1, 1], "dilation_rate": [1, 1], "kernel_regularizer": null, "filters": 512, "bias_initializer": {"class_name": "Zeros", "config": {}}, "use_bias": false, "activity_regularizer": null, "kernel_size": [1, 1]}, "inbound_nodes": [[["res3a_branch2b_relu", 0, 0, {}]]], "name": "res3a_branch2c"}, {"class_name": "Conv2D", "config": {"kernel_constraint": null, "kernel_initializer": {"class_name": "VarianceScaling", "config": {"distribution": "normal", "scale": 2.0, "seed": null, "mode": "fan_in"}}, "name": "res3a_branch1", "bias_regularizer": null, "bias_constraint": null, "activation": "linear", "trainable": false, "data_format": "channels_last", "padding": "valid", "strides": [2, 2], "dilation_rate": [1, 1], "kernel_regularizer": null, "filters": 512, "bias_initializer": {"class_name": "Zeros", "config": {}}, "use_bias": false, "activity_regularizer": null, "kernel_size": [1, 1]}, "inbound_nodes": [[["res2c_relu", 0, 0, {}]]], "name": "res3a_branch1"}, {"class_name": "BatchNormalization", "config": {"beta_constraint": null, "gamma_initializer": {"class_name": "Ones", "config": {}}, "moving_mean_initializer": {"class_name": "Zeros", "config": {}}, "name": "bn3a_branch2c", "epsilon": 1e-05, "trainable": false, "moving_variance_initializer": {"class_name": "Ones", "config": {}}, "freeze": true, "scale": true, "axis": 3, "gamma_regularizer": null, "gamma_constraint": null, "beta_initializer": {"class_name": "Zeros", "config": {}}, "beta_regularizer": null, "momentum": 0.99, "center": true}, "inbound_nodes": [[["res3a_branch2c", 0, 0, {}]]], "name": "bn3a_branch2c"}, {"class_name": "BatchNormalization", "config": {"beta_constraint": null, "gamma_initializer": {"class_name": "Ones", "config": {}}, "moving_mean_initializer": {"class_name": "Zeros", "config": {}}, "name": "bn3a_branch1", "epsilon": 1e-05, "trainable": false, "moving_variance_initializer": {"class_name": "Ones", "config": {}}, "freeze": true, "scale": true, "axis": 3, "gamma_regularizer": null, "gamma_constraint": null, "beta_initializer": {"class_name": "Zeros", "config": {}}, "beta_regularizer": null, "momentum": 0.99, "center": true}, "inbound_nodes": [[["res3a_branch1", 0, 0, {}]]], "name": "bn3a_branch1"}, {"class_name": "Add", "config": {"trainable": false, "name": "res3a"}, "inbound_nodes": [[["bn3a_branch2c", 0, 0, {}], ["bn3a_branch1", 0, 0, {}]]], "name": "res3a"}, {"class_name": "Activation", "config": {"activation": "relu", "trainable": false, "name": "res3a_relu"}, "inbound_nodes": [[["res3a", 0, 0, {}]]], "name": "res3a_relu"}, {"class_name": "Conv2D", "config": {"kernel_constraint": null, "kernel_initializer": {"class_name": "VarianceScaling", "config": {"distribution": "normal", "scale": 2.0, "seed": null, "mode": "fan_in"}}, "name": "res3b_branch2a", "bias_regularizer": null, "bias_constraint": null, "activation": "linear", "trainable": false, "data_format": "channels_last", "padding": "valid", "strides": [1, 1], "dilation_rate": [1, 1], "kernel_regularizer": null, "filters": 128, "bias_initializer": {"class_name": "Zeros", "config": {}}, "use_bias": false, "activity_regularizer": null, "kernel_size": [1, 1]}, "inbound_nodes": [[["res3a_relu", 0, 0, {}]]], "name": "res3b_branch2a"}, {"class_name": "BatchNormalization", "config": {"beta_constraint": null, "gamma_initializer": {"class_name": "Ones", "config": {}}, "moving_mean_initializer": {"class_name": "Zeros", "config": {}}, "name": "bn3b_branch2a", "epsilon": 1e-05, "trainable": false, "moving_variance_initializer": {"class_name": "Ones", "config": {}}, "freeze": true, "scale": true, "axis": 3, "gamma_regularizer": null, "gamma_constraint": null, "beta_initializer": {"class_name": "Zeros", "config": {}}, "beta_regularizer": null, "momentum": 0.99, "center": true}, "inbound_nodes": [[["res3b_branch2a", 0, 0, {}]]], "name": "bn3b_branch2a"}, {"class_name": "Activation", "config": {"activation": "relu", "trainable": false, "name": "res3b_branch2a_relu"}, "inbound_nodes": [[["bn3b_branch2a", 0, 0, {}]]], "name": "res3b_branch2a_relu"}, {"class_name": "ZeroPadding2D", "config": {"padding": [[1, 1], [1, 1]], "trainable": false, "name": "padding3b_branch2b", "data_format": "channels_last"}, "inbound_nodes": [[["res3b_branch2a_relu", 0, 0, {}]]], "name": "padding3b_branch2b"}, {"class_name": "Conv2D", "config": {"kernel_constraint": null, "kernel_initializer": {"class_name": "VarianceScaling", "config": {"distribution": "normal", "scale": 2.0, "seed": null, "mode": "fan_in"}}, "name": "res3b_branch2b", "bias_regularizer": null, "bias_constraint": null, "activation": "linear", "trainable": false, "data_format": "channels_last", "padding": "valid", "strides": [1, 1], "dilation_rate": [1, 1], "kernel_regularizer": null, "filters": 128, "bias_initializer": {"class_name": "Zeros", "config": {}}, "use_bias": false, "activity_regularizer": null, "kernel_size": [3, 3]}, "inbound_nodes": [[["padding3b_branch2b", 0, 0, {}]]], "name": "res3b_branch2b"}, {"class_name": "BatchNormalization", "config": {"beta_constraint": null, "gamma_initializer": {"class_name": "Ones", "config": {}}, "moving_mean_initializer": {"class_name": "Zeros", "config": {}}, "name": "bn3b_branch2b", "epsilon": 1e-05, "trainable": false, "moving_variance_initializer": {"class_name": "Ones", "config": {}}, "freeze": true, "scale": true, "axis": 3, "gamma_regularizer": null, "gamma_constraint": null, "beta_initializer": {"class_name": "Zeros", "config": {}}, "beta_regularizer": null, "momentum": 0.99, "center": true}, "inbound_nodes": [[["res3b_branch2b", 0, 0, {}]]], "name": "bn3b_branch2b"}, {"class_name": "Activation", "config": {"activation": "relu", "trainable": false, "name": "res3b_branch2b_relu"}, "inbound_nodes": [[["bn3b_branch2b", 0, 0, {}]]], "name": "res3b_branch2b_relu"}, {"class_name": "Conv2D", "config": {"kernel_constraint": null, "kernel_initializer": {"class_name": "VarianceScaling", "config": {"distribution": "normal", "scale": 2.0, "seed": null, "mode": "fan_in"}}, "name": "res3b_branch2c", "bias_regularizer": null, "bias_constraint": null, "activation": "linear", "trainable": false, "data_format": "channels_last", "padding": "valid", "strides": [1, 1], "dilation_rate": [1, 1], "kernel_regularizer": null, "filters": 512, "bias_initializer": {"class_name": "Zeros", "config": {}}, "use_bias": false, "activity_regularizer": null, "kernel_size": [1, 1]}, "inbound_nodes": [[["res3b_branch2b_relu", 0, 0, {}]]], "name": "res3b_branch2c"}, {"class_name": "BatchNormalization", "config": {"beta_constraint": null, "gamma_initializer": {"class_name": "Ones", "config": {}}, "moving_mean_initializer": {"class_name": "Zeros", "config": {}}, "name": "bn3b_branch2c", "epsilon": 1e-05, "trainable": false, "moving_variance_initializer": {"class_name": "Ones", "config": {}}, "freeze": true, "scale": true, "axis": 3, "gamma_regularizer": null, "gamma_constraint": null, "beta_initializer": {"class_name": "Zeros", "config": {}}, "beta_regularizer": null, "momentum": 0.99, "center": true}, "inbound_nodes": [[["res3b_branch2c", 0, 0, {}]]], "name": "bn3b_branch2c"}, {"class_name": "Add", "config": {"trainable": false, "name": "res3b"}, "inbound_nodes": [[["bn3b_branch2c", 0, 0, {}], ["res3a_relu", 0, 0, {}]]], "name": "res3b"}, {"class_name": "Activation", "config": {"activation": "relu", "trainable": false, "name": "res3b_relu"}, "inbound_nodes": [[["res3b", 0, 0, {}]]], "name": "res3b_relu"}, {"class_name": "Conv2D", "config": {"kernel_constraint": null, "kernel_initializer": {"class_name": "VarianceScaling", "config": {"distribution": "normal", "scale": 2.0, "seed": null, "mode": "fan_in"}}, "name": "res3c_branch2a", "bias_regularizer": null, "bias_constraint": null, "activation": "linear", "trainable": false, "data_format": "channels_last", "padding": "valid", "strides": [1, 1], "dilation_rate": [1, 1], "kernel_regularizer": null, "filters": 128, "bias_initializer": {"class_name": "Zeros", "config": {}}, "use_bias": false, "activity_regularizer": null, "kernel_size": [1, 1]}, "inbound_nodes": [[["res3b_relu", 0, 0, {}]]], "name": "res3c_branch2a"}, {"class_name": "BatchNormalization", "config": {"beta_constraint": null, "gamma_initializer": {"class_name": "Ones", "config": {}}, "moving_mean_initializer": {"class_name": "Zeros", "config": {}}, "name": "bn3c_branch2a", "epsilon": 1e-05, "trainable": false, "moving_variance_initializer": {"class_name": "Ones", "config": {}}, "freeze": true, "scale": true, "axis": 3, "gamma_regularizer": null, "gamma_constraint": null, "beta_initializer": {"class_name": "Zeros", "config": {}}, "beta_regularizer": null, "momentum": 0.99, "center": true}, "inbound_nodes": [[["res3c_branch2a", 0, 0, {}]]], "name": "bn3c_branch2a"}, {"class_name": "Activation", "config": {"activation": "relu", "trainable": false, "name": "res3c_branch2a_relu"}, "inbound_nodes": [[["bn3c_branch2a", 0, 0, {}]]], "name": "res3c_branch2a_relu"}, {"class_name": "ZeroPadding2D", "config": {"padding": [[1, 1], [1, 1]], "trainable": false, "name": "padding3c_branch2b", "data_format": "channels_last"}, "inbound_nodes": [[["res3c_branch2a_relu", 0, 0, {}]]], "name": "padding3c_branch2b"}, {"class_name": "Conv2D", "config": {"kernel_constraint": null, "kernel_initializer": {"class_name": "VarianceScaling", "config": {"distribution": "normal", "scale": 2.0, "seed": null, "mode": "fan_in"}}, "name": "res3c_branch2b", "bias_regularizer": null, "bias_constraint": null, "activation": "linear", "trainable": false, "data_format": "channels_last", "padding": "valid", "strides": [1, 1], "dilation_rate": [1, 1], "kernel_regularizer": null, "filters": 128, "bias_initializer": {"class_name": "Zeros", "config": {}}, "use_bias": false, "activity_regularizer": null, "kernel_size": [3, 3]}, "inbound_nodes": [[["padding3c_branch2b", 0, 0, {}]]], "name": "res3c_branch2b"}, {"class_name": "BatchNormalization", "config": {"beta_constraint": null, "gamma_initializer": {"class_name": "Ones", "config": {}}, "moving_mean_initializer": {"class_name": "Zeros", "config": {}}, "name": "bn3c_branch2b", "epsilon": 1e-05, "trainable": false, "moving_variance_initializer": {"class_name": "Ones", "config": {}}, "freeze": true, "scale": true, "axis": 3, "gamma_regularizer": null, "gamma_constraint": null, "beta_initializer": {"class_name": "Zeros", "config": {}}, "beta_regularizer": null, "momentum": 0.99, "center": true}, "inbound_nodes": [[["res3c_branch2b", 0, 0, {}]]], "name": "bn3c_branch2b"}, {"class_name": "Activation", "config": {"activation": "relu", "trainable": false, "name": "res3c_branch2b_relu"}, "inbound_nodes": [[["bn3c_branch2b", 0, 0, {}]]], "name": "res3c_branch2b_relu"}, {"class_name": "Conv2D", "config": {"kernel_constraint": null, "kernel_initializer": {"class_name": "VarianceScaling", "config": {"distribution": "normal", "scale": 2.0, "seed": null, "mode": "fan_in"}}, "name": "res3c_branch2c", "bias_regularizer": null, "bias_constraint": null, "activation": "linear", "trainable": false, "data_format": "channels_last", "padding": "valid", "strides": [1, 1], "dilation_rate": [1, 1], "kernel_regularizer": null, "filters": 512, "bias_initializer": {"class_name": "Zeros", "config": {}}, "use_bias": false, "activity_regularizer": null, "kernel_size": [1, 1]}, "inbound_nodes": [[["res3c_branch2b_relu", 0, 0, {}]]], "name": "res3c_branch2c"}, {"class_name": "BatchNormalization", "config": {"beta_constraint": null, "gamma_initializer": {"class_name": "Ones", "config": {}}, "moving_mean_initializer": {"class_name": "Zeros", "config": {}}, "name": "bn3c_branch2c", "epsilon": 1e-05, "trainable": false, "moving_variance_initializer": {"class_name": "Ones", "config": {}}, "freeze": true, "scale": true, "axis": 3, "gamma_regularizer": null, "gamma_constraint": null, "beta_initializer": {"class_name": "Zeros", "config": {}}, "beta_regularizer": null, "momentum": 0.99, "center": true}, "inbound_nodes": [[["res3c_branch2c", 0, 0, {}]]], "name": "bn3c_branch2c"}, {"class_name": "Add", "config": {"trainable": false, "name": "res3c"}, "inbound_nodes": [[["bn3c_branch2c", 0, 0, {}], ["res3b_relu", 0, 0, {}]]], "name": "res3c"}, {"class_name": "Activation", "config": {"activation": "relu", "trainable": false, "name": "res3c_relu"}, "inbound_nodes": [[["res3c", 0, 0, {}]]], "name": "res3c_relu"}, {"class_name": "Conv2D", "config": {"kernel_constraint": null, "kernel_initializer": {"class_name": "VarianceScaling", "config": {"distribution": "normal", "scale": 2.0, "seed": null, "mode": "fan_in"}}, "name": "res3d_branch2a", "bias_regularizer": null, "bias_constraint": null, "activation": "linear", "trainable": false, "data_format": "channels_last", "padding": "valid", "strides": [1, 1], "dilation_rate": [1, 1], "kernel_regularizer": null, "filters": 128, "bias_initializer": {"class_name": "Zeros", "config": {}}, "use_bias": false, "activity_regularizer": null, "kernel_size": [1, 1]}, "inbound_nodes": [[["res3c_relu", 0, 0, {}]]], "name": "res3d_branch2a"}, {"class_name": "BatchNormalization", "config": {"beta_constraint": null, "gamma_initializer": {"class_name": "Ones", "config": {}}, "moving_mean_initializer": {"class_name": "Zeros", "config": {}}, "name": "bn3d_branch2a", "epsilon": 1e-05, "trainable": false, "moving_variance_initializer": {"class_name": "Ones", "config": {}}, "freeze": true, "scale": true, "axis": 3, "gamma_regularizer": null, "gamma_constraint": null, "beta_initializer": {"class_name": "Zeros", "config": {}}, "beta_regularizer": null, "momentum": 0.99, "center": true}, "inbound_nodes": [[["res3d_branch2a", 0, 0, {}]]], "name": "bn3d_branch2a"}, {"class_name": "Activation", "config": {"activation": "relu", "trainable": false, "name": "res3d_branch2a_relu"}, "inbound_nodes": [[["bn3d_branch2a", 0, 0, {}]]], "name": "res3d_branch2a_relu"}, {"class_name": "ZeroPadding2D", "config": {"padding": [[1, 1], [1, 1]], "trainable": false, "name": "padding3d_branch2b", "data_format": "channels_last"}, "inbound_nodes": [[["res3d_branch2a_relu", 0, 0, {}]]], "name": "padding3d_branch2b"}, {"class_name": "Conv2D", "config": {"kernel_constraint": null, "kernel_initializer": {"class_name": "VarianceScaling", "config": {"distribution": "normal", "scale": 2.0, "seed": null, "mode": "fan_in"}}, "name": "res3d_branch2b", "bias_regularizer": null, "bias_constraint": null, "activation": "linear", "trainable": false, "data_format": "channels_last", "padding": "valid", "strides": [1, 1], "dilation_rate": [1, 1], "kernel_regularizer": null, "filters": 128, "bias_initializer": {"class_name": "Zeros", "config": {}}, "use_bias": false, "activity_regularizer": null, "kernel_size": [3, 3]}, "inbound_nodes": [[["padding3d_branch2b", 0, 0, {}]]], "name": "res3d_branch2b"}, {"class_name": "BatchNormalization", "config": {"beta_constraint": null, "gamma_initializer": {"class_name": "Ones", "config": {}}, "moving_mean_initializer": {"class_name": "Zeros", "config": {}}, "name": "bn3d_branch2b", "epsilon": 1e-05, "trainable": false, "moving_variance_initializer": {"class_name": "Ones", "config": {}}, "freeze": true, "scale": true, "axis": 3, "gamma_regularizer": null, "gamma_constraint": null, "beta_initializer": {"class_name": "Zeros", "config": {}}, "beta_regularizer": null, "momentum": 0.99, "center": true}, "inbound_nodes": [[["res3d_branch2b", 0, 0, {}]]], "name": "bn3d_branch2b"}, {"class_name": "Activation", "config": {"activation": "relu", "trainable": false, "name": "res3d_branch2b_relu"}, "inbound_nodes": [[["bn3d_branch2b", 0, 0, {}]]], "name": "res3d_branch2b_relu"}, {"class_name": "Conv2D", "config": {"kernel_constraint": null, "kernel_initializer": {"class_name": "VarianceScaling", "config": {"distribution": "normal", "scale": 2.0, "seed": null, "mode": "fan_in"}}, "name": "res3d_branch2c", "bias_regularizer": null, "bias_constraint": null, "activation": "linear", "trainable": false, "data_format": "channels_last", "padding": "valid", "strides": [1, 1], "dilation_rate": [1, 1], "kernel_regularizer": null, "filters": 512, "bias_initializer": {"class_name": "Zeros", "config": {}}, "use_bias": false, "activity_regularizer": null, "kernel_size": [1, 1]}, "inbound_nodes": [[["res3d_branch2b_relu", 0, 0, {}]]], "name": "res3d_branch2c"}, {"class_name": "BatchNormalization", "config": {"beta_constraint": null, "gamma_initializer": {"class_name": "Ones", "config": {}}, "moving_mean_initializer": {"class_name": "Zeros", "config": {}}, "name": "bn3d_branch2c", "epsilon": 1e-05, "trainable": false, "moving_variance_initializer": {"class_name": "Ones", "config": {}}, "freeze": true, "scale": true, "axis": 3, "gamma_regularizer": null, "gamma_constraint": null, "beta_initializer": {"class_name": "Zeros", "config": {}}, "beta_regularizer": null, "momentum": 0.99, "center": true}, "inbound_nodes": [[["res3d_branch2c", 0, 0, {}]]], "name": "bn3d_branch2c"}, {"class_name": "Add", "config": {"trainable": false, "name": "res3d"}, "inbound_nodes": [[["bn3d_branch2c", 0, 0, {}], ["res3c_relu", 0, 0, {}]]], "name": "res3d"}, {"class_name": "Activation", "config": {"activation": "relu", "trainable": false, "name": "res3d_relu"}, "inbound_nodes": [[["res3d", 0, 0, {}]]], "name": "res3d_relu"}, {"class_name": "Conv2D", "config": {"kernel_constraint": null, "kernel_initializer": {"class_name": "VarianceScaling", "config": {"distribution": "normal", "scale": 2.0, "seed": null, "mode": "fan_in"}}, "name": "res4a_branch2a", "bias_regularizer": null, "bias_constraint": null, "activation": "linear", "trainable": false, "data_format": "channels_last", "padding": "valid", "strides": [2, 2], "dilation_rate": [1, 1], "kernel_regularizer": null, "filters": 256, "bias_initializer": {"class_name": "Zeros", "config": {}}, "use_bias": false, "activity_regularizer": null, "kernel_size": [1, 1]}, "inbound_nodes": [[["res3d_relu", 0, 0, {}]]], "name": "res4a_branch2a"}, {"class_name": "BatchNormalization", "config": {"beta_constraint": null, "gamma_initializer": {"class_name": "Ones", "config": {}}, "moving_mean_initializer": {"class_name": "Zeros", "config": {}}, "name": "bn4a_branch2a", "epsilon": 1e-05, "trainable": false, "moving_variance_initializer": {"class_name": "Ones", "config": {}}, "freeze": true, "scale": true, "axis": 3, "gamma_regularizer": null, "gamma_constraint": null, "beta_initializer": {"class_name": "Zeros", "config": {}}, "beta_regularizer": null, "momentum": 0.99, "center": true}, "inbound_nodes": [[["res4a_branch2a", 0, 0, {}]]], "name": "bn4a_branch2a"}, {"class_name": "Activation", "config": {"activation": "relu", "trainable": false, "name": "res4a_branch2a_relu"}, "inbound_nodes": [[["bn4a_branch2a", 0, 0, {}]]], "name": "res4a_branch2a_relu"}, {"class_name": "ZeroPadding2D", "config": {"padding": [[1, 1], [1, 1]], "trainable": false, "name": "padding4a_branch2b", "data_format": "channels_last"}, "inbound_nodes": [[["res4a_branch2a_relu", 0, 0, {}]]], "name": "padding4a_branch2b"}, {"class_name": "Conv2D", "config": {"kernel_constraint": null, "kernel_initializer": {"class_name": "VarianceScaling", "config": {"distribution": "normal", "scale": 2.0, "seed": null, "mode": "fan_in"}}, "name": "res4a_branch2b", "bias_regularizer": null, "bias_constraint": null, "activation": "linear", "trainable": false, "data_format": "channels_last", "padding": "valid", "strides": [1, 1], "dilation_rate": [1, 1], "kernel_regularizer": null, "filters": 256, "bias_initializer": {"class_name": "Zeros", "config": {}}, "use_bias": false, "activity_regularizer": null, "kernel_size": [3, 3]}, "inbound_nodes": [[["padding4a_branch2b", 0, 0, {}]]], "name": "res4a_branch2b"}, {"class_name": "BatchNormalization", "config": {"beta_constraint": null, "gamma_initializer": {"class_name": "Ones", "config": {}}, "moving_mean_initializer": {"class_name": "Zeros", "config": {}}, "name": "bn4a_branch2b", "epsilon": 1e-05, "trainable": false, "moving_variance_initializer": {"class_name": "Ones", "config": {}}, "freeze": true, "scale": true, "axis": 3, "gamma_regularizer": null, "gamma_constraint": null, "beta_initializer": {"class_name": "Zeros", "config": {}}, "beta_regularizer": null, "momentum": 0.99, "center": true}, "inbound_nodes": [[["res4a_branch2b", 0, 0, {}]]], "name": "bn4a_branch2b"}, {"class_name": "Activation", "config": {"activation": "relu", "trainable": false, "name": "res4a_branch2b_relu"}, "inbound_nodes": [[["bn4a_branch2b", 0, 0, {}]]], "name": "res4a_branch2b_relu"}, {"class_name": "Conv2D", "config": {"kernel_constraint": null, "kernel_initializer": {"class_name": "VarianceScaling", "config": {"distribution": "normal", "scale": 2.0, "seed": null, "mode": "fan_in"}}, "name": "res4a_branch2c", "bias_regularizer": null, "bias_constraint": null, "activation": "linear", "trainable": false, "data_format": "channels_last", "padding": "valid", "strides": [1, 1], "dilation_rate": [1, 1], "kernel_regularizer": null, "filters": 1024, "bias_initializer": {"class_name": "Zeros", "config": {}}, "use_bias": false, "activity_regularizer": null, "kernel_size": [1, 1]}, "inbound_nodes": [[["res4a_branch2b_relu", 0, 0, {}]]], "name": "res4a_branch2c"}, {"class_name": "Conv2D", "config": {"kernel_constraint": null, "kernel_initializer": {"class_name": "VarianceScaling", "config": {"distribution": "normal", "scale": 2.0, "seed": null, "mode": "fan_in"}}, "name": "res4a_branch1", "bias_regularizer": null, "bias_constraint": null, "activation": "linear", "trainable": false, "data_format": "channels_last", "padding": "valid", "strides": [2, 2], "dilation_rate": [1, 1], "kernel_regularizer": null, "filters": 1024, "bias_initializer": {"class_name": "Zeros", "config": {}}, "use_bias": false, "activity_regularizer": null, "kernel_size": [1, 1]}, "inbound_nodes": [[["res3d_relu", 0, 0, {}]]], "name": "res4a_branch1"}, {"class_name": "BatchNormalization", "config": {"beta_constraint": null, "gamma_initializer": {"class_name": "Ones", "config": {}}, "moving_mean_initializer": {"class_name": "Zeros", "config": {}}, "name": "bn4a_branch2c", "epsilon": 1e-05, "trainable": false, "moving_variance_initializer": {"class_name": "Ones", "config": {}}, "freeze": true, "scale": true, "axis": 3, "gamma_regularizer": null, "gamma_constraint": null, "beta_initializer": {"class_name": "Zeros", "config": {}}, "beta_regularizer": null, "momentum": 0.99, "center": true}, "inbound_nodes": [[["res4a_branch2c", 0, 0, {}]]], "name": "bn4a_branch2c"}, {"class_name": "BatchNormalization", "config": {"beta_constraint": null, "gamma_initializer": {"class_name": "Ones", "config": {}}, "moving_mean_initializer": {"class_name": "Zeros", "config": {}}, "name": "bn4a_branch1", "epsilon": 1e-05, "trainable": false, "moving_variance_initializer": {"class_name": "Ones", "config": {}}, "freeze": true, "scale": true, "axis": 3, "gamma_regularizer": null, "gamma_constraint": null, "beta_initializer": {"class_name": "Zeros", "config": {}}, "beta_regularizer": null, "momentum": 0.99, "center": true}, "inbound_nodes": [[["res4a_branch1", 0, 0, {}]]], "name": "bn4a_branch1"}, {"class_name": "Add", "config": {"trainable": false, "name": "res4a"}, "inbound_nodes": [[["bn4a_branch2c", 0, 0, {}], ["bn4a_branch1", 0, 0, {}]]], "name": "res4a"}, {"class_name": "Activation", "config": {"activation": "relu", "trainable": false, "name": "res4a_relu"}, "inbound_nodes": [[["res4a", 0, 0, {}]]], "name": "res4a_relu"}, {"class_name": "Conv2D", "config": {"kernel_constraint": null, "kernel_initializer": {"class_name": "VarianceScaling", "config": {"distribution": "normal", "scale": 2.0, "seed": null, "mode": "fan_in"}}, "name": "res4b_branch2a", "bias_regularizer": null, "bias_constraint": null, "activation": "linear", "trainable": false, "data_format": "channels_last", "padding": "valid", "strides": [1, 1], "dilation_rate": [1, 1], "kernel_regularizer": null, "filters": 256, "bias_initializer": {"class_name": "Zeros", "config": {}}, "use_bias": false, "activity_regularizer": null, "kernel_size": [1, 1]}, "inbound_nodes": [[["res4a_relu", 0, 0, {}]]], "name": "res4b_branch2a"}, {"class_name": "BatchNormalization", "config": {"beta_constraint": null, "gamma_initializer": {"class_name": "Ones", "config": {}}, "moving_mean_initializer": {"class_name": "Zeros", "config": {}}, "name": "bn4b_branch2a", "epsilon": 1e-05, "trainable": false, "moving_variance_initializer": {"class_name": "Ones", "config": {}}, "freeze": true, "scale": true, "axis": 3, "gamma_regularizer": null, "gamma_constraint": null, "beta_initializer": {"class_name": "Zeros", "config": {}}, "beta_regularizer": null, "momentum": 0.99, "center": true}, "inbound_nodes": [[["res4b_branch2a", 0, 0, {}]]], "name": "bn4b_branch2a"}, {"class_name": "Activation", "config": {"activation": "relu", "trainable": false, "name": "res4b_branch2a_relu"}, "inbound_nodes": [[["bn4b_branch2a", 0, 0, {}]]], "name": "res4b_branch2a_relu"}, {"class_name": "ZeroPadding2D", "config": {"padding": [[1, 1], [1, 1]], "trainable": false, "name": "padding4b_branch2b", "data_format": "channels_last"}, "inbound_nodes": [[["res4b_branch2a_relu", 0, 0, {}]]], "name": "padding4b_branch2b"}, {"class_name": "Conv2D", "config": {"kernel_constraint": null, "kernel_initializer": {"class_name": "VarianceScaling", "config": {"distribution": "normal", "scale": 2.0, "seed": null, "mode": "fan_in"}}, "name": "res4b_branch2b", "bias_regularizer": null, "bias_constraint": null, "activation": "linear", "trainable": false, "data_format": "channels_last", "padding": "valid", "strides": [1, 1], "dilation_rate": [1, 1], "kernel_regularizer": null, "filters": 256, "bias_initializer": {"class_name": "Zeros", "config": {}}, "use_bias": false, "activity_regularizer": null, "kernel_size": [3, 3]}, "inbound_nodes": [[["padding4b_branch2b", 0, 0, {}]]], "name": "res4b_branch2b"}, {"class_name": "BatchNormalization", "config": {"beta_constraint": null, "gamma_initializer": {"class_name": "Ones", "config": {}}, "moving_mean_initializer": {"class_name": "Zeros", "config": {}}, "name": "bn4b_branch2b", "epsilon": 1e-05, "trainable": false, "moving_variance_initializer": {"class_name": "Ones", "config": {}}, "freeze": true, "scale": true, "axis": 3, "gamma_regularizer": null, "gamma_constraint": null, "beta_initializer": {"class_name": "Zeros", "config": {}}, "beta_regularizer": null, "momentum": 0.99, "center": true}, "inbound_nodes": [[["res4b_branch2b", 0, 0, {}]]], "name": "bn4b_branch2b"}, {"class_name": "Activation", "config": {"activation": "relu", "trainable": false, "name": "res4b_branch2b_relu"}, "inbound_nodes": [[["bn4b_branch2b", 0, 0, {}]]], "name": "res4b_branch2b_relu"}, {"class_name": "Conv2D", "config": {"kernel_constraint": null, "kernel_initializer": {"class_name": "VarianceScaling", "config": {"distribution": "normal", "scale": 2.0, "seed": null, "mode": "fan_in"}}, "name": "res4b_branch2c", "bias_regularizer": null, "bias_constraint": null, "activation": "linear", "trainable": false, "data_format": "channels_last", "padding": "valid", "strides": [1, 1], "dilation_rate": [1, 1], "kernel_regularizer": null, "filters": 1024, "bias_initializer": {"class_name": "Zeros", "config": {}}, "use_bias": false, "activity_regularizer": null, "kernel_size": [1, 1]}, "inbound_nodes": [[["res4b_branch2b_relu", 0, 0, {}]]], "name": "res4b_branch2c"}, {"class_name": "BatchNormalization", "config": {"beta_constraint": null, "gamma_initializer": {"class_name": "Ones", "config": {}}, "moving_mean_initializer": {"class_name": "Zeros", "config": {}}, "name": "bn4b_branch2c", "epsilon": 1e-05, "trainable": false, "moving_variance_initializer": {"class_name": "Ones", "config": {}}, "freeze": true, "scale": true, "axis": 3, "gamma_regularizer": null, "gamma_constraint": null, "beta_initializer": {"class_name": "Zeros", "config": {}}, "beta_regularizer": null, "momentum": 0.99, "center": true}, "inbound_nodes": [[["res4b_branch2c", 0, 0, {}]]], "name": "bn4b_branch2c"}, {"class_name": "Add", "config": {"trainable": false, "name": "res4b"}, "inbound_nodes": [[["bn4b_branch2c", 0, 0, {}], ["res4a_relu", 0, 0, {}]]], "name": "res4b"}, {"class_name": "Activation", "config": {"activation": "relu", "trainable": false, "name": "res4b_relu"}, "inbound_nodes": [[["res4b", 0, 0, {}]]], "name": "res4b_relu"}, {"class_name": "Conv2D", "config": {"kernel_constraint": null, "kernel_initializer": {"class_name": "VarianceScaling", "config": {"distribution": "normal", "scale": 2.0, "seed": null, "mode": "fan_in"}}, "name": "res4c_branch2a", "bias_regularizer": null, "bias_constraint": null, "activation": "linear", "trainable": false, "data_format": "channels_last", "padding": "valid", "strides": [1, 1], "dilation_rate": [1, 1], "kernel_regularizer": null, "filters": 256, "bias_initializer": {"class_name": "Zeros", "config": {}}, "use_bias": false, "activity_regularizer": null, "kernel_size": [1, 1]}, "inbound_nodes": [[["res4b_relu", 0, 0, {}]]], "name": "res4c_branch2a"}, {"class_name": "BatchNormalization", "config": {"beta_constraint": null, "gamma_initializer": {"class_name": "Ones", "config": {}}, "moving_mean_initializer": {"class_name": "Zeros", "config": {}}, "name": "bn4c_branch2a", "epsilon": 1e-05, "trainable": false, "moving_variance_initializer": {"class_name": "Ones", "config": {}}, "freeze": true, "scale": true, "axis": 3, "gamma_regularizer": null, "gamma_constraint": null, "beta_initializer": {"class_name": "Zeros", "config": {}}, "beta_regularizer": null, "momentum": 0.99, "center": true}, "inbound_nodes": [[["res4c_branch2a", 0, 0, {}]]], "name": "bn4c_branch2a"}, {"class_name": "Activation", "config": {"activation": "relu", "trainable": false, "name": "res4c_branch2a_relu"}, "inbound_nodes": [[["bn4c_branch2a", 0, 0, {}]]], "name": "res4c_branch2a_relu"}, {"class_name": "ZeroPadding2D", "config": {"padding": [[1, 1], [1, 1]], "trainable": false, "name": "padding4c_branch2b", "data_format": "channels_last"}, "inbound_nodes": [[["res4c_branch2a_relu", 0, 0, {}]]], "name": "padding4c_branch2b"}, {"class_name": "Conv2D", "config": {"kernel_constraint": null, "kernel_initializer": {"class_name": "VarianceScaling", "config": {"distribution": "normal", "scale": 2.0, "seed": null, "mode": "fan_in"}}, "name": "res4c_branch2b", "bias_regularizer": null, "bias_constraint": null, "activation": "linear", "trainable": false, "data_format": "channels_last", "padding": "valid", "strides": [1, 1], "dilation_rate": [1, 1], "kernel_regularizer": null, "filters": 256, "bias_initializer": {"class_name": "Zeros", "config": {}}, "use_bias": false, "activity_regularizer": null, "kernel_size": [3, 3]}, "inbound_nodes": [[["padding4c_branch2b", 0, 0, {}]]], "name": "res4c_branch2b"}, {"class_name": "BatchNormalization", "config": {"beta_constraint": null, "gamma_initializer": {"class_name": "Ones", "config": {}}, "moving_mean_initializer": {"class_name": "Zeros", "config": {}}, "name": "bn4c_branch2b", "epsilon": 1e-05, "trainable": false, "moving_variance_initializer": {"class_name": "Ones", "config": {}}, "freeze": true, "scale": true, "axis": 3, "gamma_regularizer": null, "gamma_constraint": null, "beta_initializer": {"class_name": "Zeros", "config": {}}, "beta_regularizer": null, "momentum": 0.99, "center": true}, "inbound_nodes": [[["res4c_branch2b", 0, 0, {}]]], "name": "bn4c_branch2b"}, {"class_name": "Activation", "config": {"activation": "relu", "trainable": false, "name": "res4c_branch2b_relu"}, "inbound_nodes": [[["bn4c_branch2b", 0, 0, {}]]], "name": "res4c_branch2b_relu"}, {"class_name": "Conv2D", "config": {"kernel_constraint": null, "kernel_initializer": {"class_name": "VarianceScaling", "config": {"distribution": "normal", "scale": 2.0, "seed": null, "mode": "fan_in"}}, "name": "res4c_branch2c", "bias_regularizer": null, "bias_constraint": null, "activation": "linear", "trainable": false, "data_format": "channels_last", "padding": "valid", "strides": [1, 1], "dilation_rate": [1, 1], "kernel_regularizer": null, "filters": 1024, "bias_initializer": {"class_name": "Zeros", "config": {}}, "use_bias": false, "activity_regularizer": null, "kernel_size": [1, 1]}, "inbound_nodes": [[["res4c_branch2b_relu", 0, 0, {}]]], "name": "res4c_branch2c"}, {"class_name": "BatchNormalization", "config": {"beta_constraint": null, "gamma_initializer": {"class_name": "Ones", "config": {}}, "moving_mean_initializer": {"class_name": "Zeros", "config": {}}, "name": "bn4c_branch2c", "epsilon": 1e-05, "trainable": false, "moving_variance_initializer": {"class_name": "Ones", "config": {}}, "freeze": true, "scale": true, "axis": 3, "gamma_regularizer": null, "gamma_constraint": null, "beta_initializer": {"class_name": "Zeros", "config": {}}, "beta_regularizer": null, "momentum": 0.99, "center": true}, "inbound_nodes": [[["res4c_branch2c", 0, 0, {}]]], "name": "bn4c_branch2c"}, {"class_name": "Add", "config": {"trainable": false, "name": "res4c"}, "inbound_nodes": [[["bn4c_branch2c", 0, 0, {}], ["res4b_relu", 0, 0, {}]]], "name": "res4c"}, {"class_name": "Activation", "config": {"activation": "relu", "trainable": false, "name": "res4c_relu"}, "inbound_nodes": [[["res4c", 0, 0, {}]]], "name": "res4c_relu"}, {"class_name": "Conv2D", "config": {"kernel_constraint": null, "kernel_initializer": {"class_name": "VarianceScaling", "config": {"distribution": "normal", "scale": 2.0, "seed": null, "mode": "fan_in"}}, "name": "res4d_branch2a", "bias_regularizer": null, "bias_constraint": null, "activation": "linear", "trainable": false, "data_format": "channels_last", "padding": "valid", "strides": [1, 1], "dilation_rate": [1, 1], "kernel_regularizer": null, "filters": 256, "bias_initializer": {"class_name": "Zeros", "config": {}}, "use_bias": false, "activity_regularizer": null, "kernel_size": [1, 1]}, "inbound_nodes": [[["res4c_relu", 0, 0, {}]]], "name": "res4d_branch2a"}, {"class_name": "BatchNormalization", "config": {"beta_constraint": null, "gamma_initializer": {"class_name": "Ones", "config": {}}, "moving_mean_initializer": {"class_name": "Zeros", "config": {}}, "name": "bn4d_branch2a", "epsilon": 1e-05, "trainable": false, "moving_variance_initializer": {"class_name": "Ones", "config": {}}, "freeze": true, "scale": true, "axis": 3, "gamma_regularizer": null, "gamma_constraint": null, "beta_initializer": {"class_name": "Zeros", "config": {}}, "beta_regularizer": null, "momentum": 0.99, "center": true}, "inbound_nodes": [[["res4d_branch2a", 0, 0, {}]]], "name": "bn4d_branch2a"}, {"class_name": "Activation", "config": {"activation": "relu", "trainable": false, "name": "res4d_branch2a_relu"}, "inbound_nodes": [[["bn4d_branch2a", 0, 0, {}]]], "name": "res4d_branch2a_relu"}, {"class_name": "ZeroPadding2D", "config": {"padding": [[1, 1], [1, 1]], "trainable": false, "name": "padding4d_branch2b", "data_format": "channels_last"}, "inbound_nodes": [[["res4d_branch2a_relu", 0, 0, {}]]], "name": "padding4d_branch2b"}, {"class_name": "Conv2D", "config": {"kernel_constraint": null, "kernel_initializer": {"class_name": "VarianceScaling", "config": {"distribution": "normal", "scale": 2.0, "seed": null, "mode": "fan_in"}}, "name": "res4d_branch2b", "bias_regularizer": null, "bias_constraint": null, "activation": "linear", "trainable": false, "data_format": "channels_last", "padding": "valid", "strides": [1, 1], "dilation_rate": [1, 1], "kernel_regularizer": null, "filters": 256, "bias_initializer": {"class_name": "Zeros", "config": {}}, "use_bias": false, "activity_regularizer": null, "kernel_size": [3, 3]}, "inbound_nodes": [[["padding4d_branch2b", 0, 0, {}]]], "name": "res4d_branch2b"}, {"class_name": "BatchNormalization", "config": {"beta_constraint": null, "gamma_initializer": {"class_name": "Ones", "config": {}}, "moving_mean_initializer": {"class_name": "Zeros", "config": {}}, "name": "bn4d_branch2b", "epsilon": 1e-05, "trainable": false, "moving_variance_initializer": {"class_name": "Ones", "config": {}}, "freeze": true, "scale": true, "axis": 3, "gamma_regularizer": null, "gamma_constraint": null, "beta_initializer": {"class_name": "Zeros", "config": {}}, "beta_regularizer": null, "momentum": 0.99, "center": true}, "inbound_nodes": [[["res4d_branch2b", 0, 0, {}]]], "name": "bn4d_branch2b"}, {"class_name": "Activation", "config": {"activation": "relu", "trainable": false, "name": "res4d_branch2b_relu"}, "inbound_nodes": [[["bn4d_branch2b", 0, 0, {}]]], "name": "res4d_branch2b_relu"}, {"class_name": "Conv2D", "config": {"kernel_constraint": null, "kernel_initializer": {"class_name": "VarianceScaling", "config": {"distribution": "normal", "scale": 2.0, "seed": null, "mode": "fan_in"}}, "name": "res4d_branch2c", "bias_regularizer": null, "bias_constraint": null, "activation": "linear", "trainable": false, "data_format": "channels_last", "padding": "valid", "strides": [1, 1], "dilation_rate": [1, 1], "kernel_regularizer": null, "filters": 1024, "bias_initializer": {"class_name": "Zeros", "config": {}}, "use_bias": false, "activity_regularizer": null, "kernel_size": [1, 1]}, "inbound_nodes": [[["res4d_branch2b_relu", 0, 0, {}]]], "name": "res4d_branch2c"}, {"class_name": "BatchNormalization", "config": {"beta_constraint": null, "gamma_initializer": {"class_name": "Ones", "config": {}}, "moving_mean_initializer": {"class_name": "Zeros", "config": {}}, "name": "bn4d_branch2c", "epsilon": 1e-05, "trainable": false, "moving_variance_initializer": {"class_name": "Ones", "config": {}}, "freeze": true, "scale": true, "axis": 3, "gamma_regularizer": null, "gamma_constraint": null, "beta_initializer": {"class_name": "Zeros", "config": {}}, "beta_regularizer": null, "momentum": 0.99, "center": true}, "inbound_nodes": [[["res4d_branch2c", 0, 0, {}]]], "name": "bn4d_branch2c"}, {"class_name": "Add", "config": {"trainable": false, "name": "res4d"}, "inbound_nodes": [[["bn4d_branch2c", 0, 0, {}], ["res4c_relu", 0, 0, {}]]], "name": "res4d"}, {"class_name": "Activation", "config": {"activation": "relu", "trainable": false, "name": "res4d_relu"}, "inbound_nodes": [[["res4d", 0, 0, {}]]], "name": "res4d_relu"}, {"class_name": "Conv2D", "config": {"kernel_constraint": null, "kernel_initializer": {"class_name": "VarianceScaling", "config": {"distribution": "normal", "scale": 2.0, "seed": null, "mode": "fan_in"}}, "name": "res4e_branch2a", "bias_regularizer": null, "bias_constraint": null, "activation": "linear", "trainable": false, "data_format": "channels_last", "padding": "valid", "strides": [1, 1], "dilation_rate": [1, 1], "kernel_regularizer": null, "filters": 256, "bias_initializer": {"class_name": "Zeros", "config": {}}, "use_bias": false, "activity_regularizer": null, "kernel_size": [1, 1]}, "inbound_nodes": [[["res4d_relu", 0, 0, {}]]], "name": "res4e_branch2a"}, {"class_name": "BatchNormalization", "config": {"beta_constraint": null, "gamma_initializer": {"class_name": "Ones", "config": {}}, "moving_mean_initializer": {"class_name": "Zeros", "config": {}}, "name": "bn4e_branch2a", "epsilon": 1e-05, "trainable": false, "moving_variance_initializer": {"class_name": "Ones", "config": {}}, "freeze": true, "scale": true, "axis": 3, "gamma_regularizer": null, "gamma_constraint": null, "beta_initializer": {"class_name": "Zeros", "config": {}}, "beta_regularizer": null, "momentum": 0.99, "center": true}, "inbound_nodes": [[["res4e_branch2a", 0, 0, {}]]], "name": "bn4e_branch2a"}, {"class_name": "Activation", "config": {"activation": "relu", "trainable": false, "name": "res4e_branch2a_relu"}, "inbound_nodes": [[["bn4e_branch2a", 0, 0, {}]]], "name": "res4e_branch2a_relu"}, {"class_name": "ZeroPadding2D", "config": {"padding": [[1, 1], [1, 1]], "trainable": false, "name": "padding4e_branch2b", "data_format": "channels_last"}, "inbound_nodes": [[["res4e_branch2a_relu", 0, 0, {}]]], "name": "padding4e_branch2b"}, {"class_name": "Conv2D", "config": {"kernel_constraint": null, "kernel_initializer": {"class_name": "VarianceScaling", "config": {"distribution": "normal", "scale": 2.0, "seed": null, "mode": "fan_in"}}, "name": "res4e_branch2b", "bias_regularizer": null, "bias_constraint": null, "activation": "linear", "trainable": false, "data_format": "channels_last", "padding": "valid", "strides": [1, 1], "dilation_rate": [1, 1], "kernel_regularizer": null, "filters": 256, "bias_initializer": {"class_name": "Zeros", "config": {}}, "use_bias": false, "activity_regularizer": null, "kernel_size": [3, 3]}, "inbound_nodes": [[["padding4e_branch2b", 0, 0, {}]]], "name": "res4e_branch2b"}, {"class_name": "BatchNormalization", "config": {"beta_constraint": null, "gamma_initializer": {"class_name": "Ones", "config": {}}, "moving_mean_initializer": {"class_name": "Zeros", "config": {}}, "name": "bn4e_branch2b", "epsilon": 1e-05, "trainable": false, "moving_variance_initializer": {"class_name": "Ones", "config": {}}, "freeze": true, "scale": true, "axis": 3, "gamma_regularizer": null, "gamma_constraint": null, "beta_initializer": {"class_name": "Zeros", "config": {}}, "beta_regularizer": null, "momentum": 0.99, "center": true}, "inbound_nodes": [[["res4e_branch2b", 0, 0, {}]]], "name": "bn4e_branch2b"}, {"class_name": "Activation", "config": {"activation": "relu", "trainable": false, "name": "res4e_branch2b_relu"}, "inbound_nodes": [[["bn4e_branch2b", 0, 0, {}]]], "name": "res4e_branch2b_relu"}, {"class_name": "Conv2D", "config": {"kernel_constraint": null, "kernel_initializer": {"class_name": "VarianceScaling", "config": {"distribution": "normal", "scale": 2.0, "seed": null, "mode": "fan_in"}}, "name": "res4e_branch2c", "bias_regularizer": null, "bias_constraint": null, "activation": "linear", "trainable": false, "data_format": "channels_last", "padding": "valid", "strides": [1, 1], "dilation_rate": [1, 1], "kernel_regularizer": null, "filters": 1024, "bias_initializer": {"class_name": "Zeros", "config": {}}, "use_bias": false, "activity_regularizer": null, "kernel_size": [1, 1]}, "inbound_nodes": [[["res4e_branch2b_relu", 0, 0, {}]]], "name": "res4e_branch2c"}, {"class_name": "BatchNormalization", "config": {"beta_constraint": null, "gamma_initializer": {"class_name": "Ones", "config": {}}, "moving_mean_initializer": {"class_name": "Zeros", "config": {}}, "name": "bn4e_branch2c", "epsilon": 1e-05, "trainable": false, "moving_variance_initializer": {"class_name": "Ones", "config": {}}, "freeze": true, "scale": true, "axis": 3, "gamma_regularizer": null, "gamma_constraint": null, "beta_initializer": {"class_name": "Zeros", "config": {}}, "beta_regularizer": null, "momentum": 0.99, "center": true}, "inbound_nodes": [[["res4e_branch2c", 0, 0, {}]]], "name": "bn4e_branch2c"}, {"class_name": "Add", "config": {"trainable": false, "name": "res4e"}, "inbound_nodes": [[["bn4e_branch2c", 0, 0, {}], ["res4d_relu", 0, 0, {}]]], "name": "res4e"}, {"class_name": "Activation", "config": {"activation": "relu", "trainable": false, "name": "res4e_relu"}, "inbound_nodes": [[["res4e", 0, 0, {}]]], "name": "res4e_relu"}, {"class_name": "Conv2D", "config": {"kernel_constraint": null, "kernel_initializer": {"class_name": "VarianceScaling", "config": {"distribution": "normal", "scale": 2.0, "seed": null, "mode": "fan_in"}}, "name": "res4f_branch2a", "bias_regularizer": null, "bias_constraint": null, "activation": "linear", "trainable": false, "data_format": "channels_last", "padding": "valid", "strides": [1, 1], "dilation_rate": [1, 1], "kernel_regularizer": null, "filters": 256, "bias_initializer": {"class_name": "Zeros", "config": {}}, "use_bias": false, "activity_regularizer": null, "kernel_size": [1, 1]}, "inbound_nodes": [[["res4e_relu", 0, 0, {}]]], "name": "res4f_branch2a"}, {"class_name": "BatchNormalization", "config": {"beta_constraint": null, "gamma_initializer": {"class_name": "Ones", "config": {}}, "moving_mean_initializer": {"class_name": "Zeros", "config": {}}, "name": "bn4f_branch2a", "epsilon": 1e-05, "trainable": false, "moving_variance_initializer": {"class_name": "Ones", "config": {}}, "freeze": true, "scale": true, "axis": 3, "gamma_regularizer": null, "gamma_constraint": null, "beta_initializer": {"class_name": "Zeros", "config": {}}, "beta_regularizer": null, "momentum": 0.99, "center": true}, "inbound_nodes": [[["res4f_branch2a", 0, 0, {}]]], "name": "bn4f_branch2a"}, {"class_name": "Activation", "config": {"activation": "relu", "trainable": false, "name": "res4f_branch2a_relu"}, "inbound_nodes": [[["bn4f_branch2a", 0, 0, {}]]], "name": "res4f_branch2a_relu"}, {"class_name": "ZeroPadding2D", "config": {"padding": [[1, 1], [1, 1]], "trainable": false, "name": "padding4f_branch2b", "data_format": "channels_last"}, "inbound_nodes": [[["res4f_branch2a_relu", 0, 0, {}]]], "name": "padding4f_branch2b"}, {"class_name": "Conv2D", "config": {"kernel_constraint": null, "kernel_initializer": {"class_name": "VarianceScaling", "config": {"distribution": "normal", "scale": 2.0, "seed": null, "mode": "fan_in"}}, "name": "res4f_branch2b", "bias_regularizer": null, "bias_constraint": null, "activation": "linear", "trainable": false, "data_format": "channels_last", "padding": "valid", "strides": [1, 1], "dilation_rate": [1, 1], "kernel_regularizer": null, "filters": 256, "bias_initializer": {"class_name": "Zeros", "config": {}}, "use_bias": false, "activity_regularizer": null, "kernel_size": [3, 3]}, "inbound_nodes": [[["padding4f_branch2b", 0, 0, {}]]], "name": "res4f_branch2b"}, {"class_name": "BatchNormalization", "config": {"beta_constraint": null, "gamma_initializer": {"class_name": "Ones", "config": {}}, "moving_mean_initializer": {"class_name": "Zeros", "config": {}}, "name": "bn4f_branch2b", "epsilon": 1e-05, "trainable": false, "moving_variance_initializer": {"class_name": "Ones", "config": {}}, "freeze": true, "scale": true, "axis": 3, "gamma_regularizer": null, "gamma_constraint": null, "beta_initializer": {"class_name": "Zeros", "config": {}}, "beta_regularizer": null, "momentum": 0.99, "center": true}, "inbound_nodes": [[["res4f_branch2b", 0, 0, {}]]], "name": "bn4f_branch2b"}, {"class_name": "Activation", "config": {"activation": "relu", "trainable": false, "name": "res4f_branch2b_relu"}, "inbound_nodes": [[["bn4f_branch2b", 0, 0, {}]]], "name": "res4f_branch2b_relu"}, {"class_name": "Conv2D", "config": {"kernel_constraint": null, "kernel_initializer": {"class_name": "VarianceScaling", "config": {"distribution": "normal", "scale": 2.0, "seed": null, "mode": "fan_in"}}, "name": "res4f_branch2c", "bias_regularizer": null, "bias_constraint": null, "activation": "linear", "trainable": false, "data_format": "channels_last", "padding": "valid", "strides": [1, 1], "dilation_rate": [1, 1], "kernel_regularizer": null, "filters": 1024, "bias_initializer": {"class_name": "Zeros", "config": {}}, "use_bias": false, "activity_regularizer": null, "kernel_size": [1, 1]}, "inbound_nodes": [[["res4f_branch2b_relu", 0, 0, {}]]], "name": "res4f_branch2c"}, {"class_name": "BatchNormalization", "config": {"beta_constraint": null, "gamma_initializer": {"class_name": "Ones", "config": {}}, "moving_mean_initializer": {"class_name": "Zeros", "config": {}}, "name": "bn4f_branch2c", "epsilon": 1e-05, "trainable": false, "moving_variance_initializer": {"class_name": "Ones", "config": {}}, "freeze": true, "scale": true, "axis": 3, "gamma_regularizer": null, "gamma_constraint": null, "beta_initializer": {"class_name": "Zeros", "config": {}}, "beta_regularizer": null, "momentum": 0.99, "center": true}, "inbound_nodes": [[["res4f_branch2c", 0, 0, {}]]], "name": "bn4f_branch2c"}, {"class_name": "Add", "config": {"trainable": false, "name": "res4f"}, "inbound_nodes": [[["bn4f_branch2c", 0, 0, {}], ["res4e_relu", 0, 0, {}]]], "name": "res4f"}, {"class_name": "Activation", "config": {"activation": "relu", "trainable": false, "name": "res4f_relu"}, "inbound_nodes": [[["res4f", 0, 0, {}]]], "name": "res4f_relu"}, {"class_name": "Conv2D", "config": {"kernel_constraint": null, "kernel_initializer": {"class_name": "VarianceScaling", "config": {"distribution": "normal", "scale": 2.0, "seed": null, "mode": "fan_in"}}, "name": "res5a_branch2a", "bias_regularizer": null, "bias_constraint": null, "activation": "linear", "trainable": false, "data_format": "channels_last", "padding": "valid", "strides": [2, 2], "dilation_rate": [1, 1], "kernel_regularizer": null, "filters": 512, "bias_initializer": {"class_name": "Zeros", "config": {}}, "use_bias": false, "activity_regularizer": null, "kernel_size": [1, 1]}, "inbound_nodes": [[["res4f_relu", 0, 0, {}]]], "name": "res5a_branch2a"}, {"class_name": "BatchNormalization", "config": {"beta_constraint": null, "gamma_initializer": {"class_name": "Ones", "config": {}}, "moving_mean_initializer": {"class_name": "Zeros", "config": {}}, "name": "bn5a_branch2a", "epsilon": 1e-05, "trainable": false, "moving_variance_initializer": {"class_name": "Ones", "config": {}}, "freeze": true, "scale": true, "axis": 3, "gamma_regularizer": null, "gamma_constraint": null, "beta_initializer": {"class_name": "Zeros", "config": {}}, "beta_regularizer": null, "momentum": 0.99, "center": true}, "inbound_nodes": [[["res5a_branch2a", 0, 0, {}]]], "name": "bn5a_branch2a"}, {"class_name": "Activation", "config": {"activation": "relu", "trainable": false, "name": "res5a_branch2a_relu"}, "inbound_nodes": [[["bn5a_branch2a", 0, 0, {}]]], "name": "res5a_branch2a_relu"}, {"class_name": "ZeroPadding2D", "config": {"padding": [[1, 1], [1, 1]], "trainable": false, "name": "padding5a_branch2b", "data_format": "channels_last"}, "inbound_nodes": [[["res5a_branch2a_relu", 0, 0, {}]]], "name": "padding5a_branch2b"}, {"class_name": "Conv2D", "config": {"kernel_constraint": null, "kernel_initializer": {"class_name": "VarianceScaling", "config": {"distribution": "normal", "scale": 2.0, "seed": null, "mode": "fan_in"}}, "name": "res5a_branch2b", "bias_regularizer": null, "bias_constraint": null, "activation": "linear", "trainable": false, "data_format": "channels_last", "padding": "valid", "strides": [1, 1], "dilation_rate": [1, 1], "kernel_regularizer": null, "filters": 512, "bias_initializer": {"class_name": "Zeros", "config": {}}, "use_bias": false, "activity_regularizer": null, "kernel_size": [3, 3]}, "inbound_nodes": [[["padding5a_branch2b", 0, 0, {}]]], "name": "res5a_branch2b"}, {"class_name": "BatchNormalization", "config": {"beta_constraint": null, "gamma_initializer": {"class_name": "Ones", "config": {}}, "moving_mean_initializer": {"class_name": "Zeros", "config": {}}, "name": "bn5a_branch2b", "epsilon": 1e-05, "trainable": false, "moving_variance_initializer": {"class_name": "Ones", "config": {}}, "freeze": true, "scale": true, "axis": 3, "gamma_regularizer": null, "gamma_constraint": null, "beta_initializer": {"class_name": "Zeros", "config": {}}, "beta_regularizer": null, "momentum": 0.99, "center": true}, "inbound_nodes": [[["res5a_branch2b", 0, 0, {}]]], "name": "bn5a_branch2b"}, {"class_name": "Activation", "config": {"activation": "relu", "trainable": false, "name": "res5a_branch2b_relu"}, "inbound_nodes": [[["bn5a_branch2b", 0, 0, {}]]], "name": "res5a_branch2b_relu"}, {"class_name": "Conv2D", "config": {"kernel_constraint": null, "kernel_initializer": {"class_name": "VarianceScaling", "config": {"distribution": "normal", "scale": 2.0, "seed": null, "mode": "fan_in"}}, "name": "res5a_branch2c", "bias_regularizer": null, "bias_constraint": null, "activation": "linear", "trainable": false, "data_format": "channels_last", "padding": "valid", "strides": [1, 1], "dilation_rate": [1, 1], "kernel_regularizer": null, "filters": 2048, "bias_initializer": {"class_name": "Zeros", "config": {}}, "use_bias": false, "activity_regularizer": null, "kernel_size": [1, 1]}, "inbound_nodes": [[["res5a_branch2b_relu", 0, 0, {}]]], "name": "res5a_branch2c"}, {"class_name": "Conv2D", "config": {"kernel_constraint": null, "kernel_initializer": {"class_name": "VarianceScaling", "config": {"distribution": "normal", "scale": 2.0, "seed": null, "mode": "fan_in"}}, "name": "res5a_branch1", "bias_regularizer": null, "bias_constraint": null, "activation": "linear", "trainable": false, "data_format": "channels_last", "padding": "valid", "strides": [2, 2], "dilation_rate": [1, 1], "kernel_regularizer": null, "filters": 2048, "bias_initializer": {"class_name": "Zeros", "config": {}}, "use_bias": false, "activity_regularizer": null, "kernel_size": [1, 1]}, "inbound_nodes": [[["res4f_relu", 0, 0, {}]]], "name": "res5a_branch1"}, {"class_name": "BatchNormalization", "config": {"beta_constraint": null, "gamma_initializer": {"class_name": "Ones", "config": {}}, "moving_mean_initializer": {"class_name": "Zeros", "config": {}}, "name": "bn5a_branch2c", "epsilon": 1e-05, "trainable": false, "moving_variance_initializer": {"class_name": "Ones", "config": {}}, "freeze": true, "scale": true, "axis": 3, "gamma_regularizer": null, "gamma_constraint": null, "beta_initializer": {"class_name": "Zeros", "config": {}}, "beta_regularizer": null, "momentum": 0.99, "center": true}, "inbound_nodes": [[["res5a_branch2c", 0, 0, {}]]], "name": "bn5a_branch2c"}, {"class_name": "BatchNormalization", "config": {"beta_constraint": null, "gamma_initializer": {"class_name": "Ones", "config": {}}, "moving_mean_initializer": {"class_name": "Zeros", "config": {}}, "name": "bn5a_branch1", "epsilon": 1e-05, "trainable": false, "moving_variance_initializer": {"class_name": "Ones", "config": {}}, "freeze": true, "scale": true, "axis": 3, "gamma_regularizer": null, "gamma_constraint": null, "beta_initializer": {"class_name": "Zeros", "config": {}}, "beta_regularizer": null, "momentum": 0.99, "center": true}, "inbound_nodes": [[["res5a_branch1", 0, 0, {}]]], "name": "bn5a_branch1"}, {"class_name": "Add", "config": {"trainable": false, "name": "res5a"}, "inbound_nodes": [[["bn5a_branch2c", 0, 0, {}], ["bn5a_branch1", 0, 0, {}]]], "name": "res5a"}, {"class_name": "Activation", "config": {"activation": "relu", "trainable": false, "name": "res5a_relu"}, "inbound_nodes": [[["res5a", 0, 0, {}]]], "name": "res5a_relu"}, {"class_name": "Conv2D", "config": {"kernel_constraint": null, "kernel_initializer": {"class_name": "VarianceScaling", "config": {"distribution": "normal", "scale": 2.0, "seed": null, "mode": "fan_in"}}, "name": "res5b_branch2a", "bias_regularizer": null, "bias_constraint": null, "activation": "linear", "trainable": false, "data_format": "channels_last", "padding": "valid", "strides": [1, 1], "dilation_rate": [1, 1], "kernel_regularizer": null, "filters": 512, "bias_initializer": {"class_name": "Zeros", "config": {}}, "use_bias": false, "activity_regularizer": null, "kernel_size": [1, 1]}, "inbound_nodes": [[["res5a_relu", 0, 0, {}]]], "name": "res5b_branch2a"}, {"class_name": "BatchNormalization", "config": {"beta_constraint": null, "gamma_initializer": {"class_name": "Ones", "config": {}}, "moving_mean_initializer": {"class_name": "Zeros", "config": {}}, "name": "bn5b_branch2a", "epsilon": 1e-05, "trainable": false, "moving_variance_initializer": {"class_name": "Ones", "config": {}}, "freeze": true, "scale": true, "axis": 3, "gamma_regularizer": null, "gamma_constraint": null, "beta_initializer": {"class_name": "Zeros", "config": {}}, "beta_regularizer": null, "momentum": 0.99, "center": true}, "inbound_nodes": [[["res5b_branch2a", 0, 0, {}]]], "name": "bn5b_branch2a"}, {"class_name": "Activation", "config": {"activation": "relu", "trainable": false, "name": "res5b_branch2a_relu"}, "inbound_nodes": [[["bn5b_branch2a", 0, 0, {}]]], "name": "res5b_branch2a_relu"}, {"class_name": "ZeroPadding2D", "config": {"padding": [[1, 1], [1, 1]], "trainable": false, "name": "padding5b_branch2b", "data_format": "channels_last"}, "inbound_nodes": [[["res5b_branch2a_relu", 0, 0, {}]]], "name": "padding5b_branch2b"}, {"class_name": "Conv2D", "config": {"kernel_constraint": null, "kernel_initializer": {"class_name": "VarianceScaling", "config": {"distribution": "normal", "scale": 2.0, "seed": null, "mode": "fan_in"}}, "name": "res5b_branch2b", "bias_regularizer": null, "bias_constraint": null, "activation": "linear", "trainable": false, "data_format": "channels_last", "padding": "valid", "strides": [1, 1], "dilation_rate": [1, 1], "kernel_regularizer": null, "filters": 512, "bias_initializer": {"class_name": "Zeros", "config": {}}, "use_bias": false, "activity_regularizer": null, "kernel_size": [3, 3]}, "inbound_nodes": [[["padding5b_branch2b", 0, 0, {}]]], "name": "res5b_branch2b"}, {"class_name": "BatchNormalization", "config": {"beta_constraint": null, "gamma_initializer": {"class_name": "Ones", "config": {}}, "moving_mean_initializer": {"class_name": "Zeros", "config": {}}, "name": "bn5b_branch2b", "epsilon": 1e-05, "trainable": false, "moving_variance_initializer": {"class_name": "Ones", "config": {}}, "freeze": true, "scale": true, "axis": 3, "gamma_regularizer": null, "gamma_constraint": null, "beta_initializer": {"class_name": "Zeros", "config": {}}, "beta_regularizer": null, "momentum": 0.99, "center": true}, "inbound_nodes": [[["res5b_branch2b", 0, 0, {}]]], "name": "bn5b_branch2b"}, {"class_name": "Activation", "config": {"activation": "relu", "trainable": false, "name": "res5b_branch2b_relu"}, "inbound_nodes": [[["bn5b_branch2b", 0, 0, {}]]], "name": "res5b_branch2b_relu"}, {"class_name": "Conv2D", "config": {"kernel_constraint": null, "kernel_initializer": {"class_name": "VarianceScaling", "config": {"distribution": "normal", "scale": 2.0, "seed": null, "mode": "fan_in"}}, "name": "res5b_branch2c", "bias_regularizer": null, "bias_constraint": null, "activation": "linear", "trainable": false, "data_format": "channels_last", "padding": "valid", "strides": [1, 1], "dilation_rate": [1, 1], "kernel_regularizer": null, "filters": 2048, "bias_initializer": {"class_name": "Zeros", "config": {}}, "use_bias": false, "activity_regularizer": null, "kernel_size": [1, 1]}, "inbound_nodes": [[["res5b_branch2b_relu", 0, 0, {}]]], "name": "res5b_branch2c"}, {"class_name": "BatchNormalization", "config": {"beta_constraint": null, "gamma_initializer": {"class_name": "Ones", "config": {}}, "moving_mean_initializer": {"class_name": "Zeros", "config": {}}, "name": "bn5b_branch2c", "epsilon": 1e-05, "trainable": false, "moving_variance_initializer": {"class_name": "Ones", "config": {}}, "freeze": true, "scale": true, "axis": 3, "gamma_regularizer": null, "gamma_constraint": null, "beta_initializer": {"class_name": "Zeros", "config": {}}, "beta_regularizer": null, "momentum": 0.99, "center": true}, "inbound_nodes": [[["res5b_branch2c", 0, 0, {}]]], "name": "bn5b_branch2c"}, {"class_name": "Add", "config": {"trainable": false, "name": "res5b"}, "inbound_nodes": [[["bn5b_branch2c", 0, 0, {}], ["res5a_relu", 0, 0, {}]]], "name": "res5b"}, {"class_name": "Activation", "config": {"activation": "relu", "trainable": false, "name": "res5b_relu"}, "inbound_nodes": [[["res5b", 0, 0, {}]]], "name": "res5b_relu"}, {"class_name": "Conv2D", "config": {"kernel_constraint": null, "kernel_initializer": {"class_name": "VarianceScaling", "config": {"distribution": "normal", "scale": 2.0, "seed": null, "mode": "fan_in"}}, "name": "res5c_branch2a", "bias_regularizer": null, "bias_constraint": null, "activation": "linear", "trainable": false, "data_format": "channels_last", "padding": "valid", "strides": [1, 1], "dilation_rate": [1, 1], "kernel_regularizer": null, "filters": 512, "bias_initializer": {"class_name": "Zeros", "config": {}}, "use_bias": false, "activity_regularizer": null, "kernel_size": [1, 1]}, "inbound_nodes": [[["res5b_relu", 0, 0, {}]]], "name": "res5c_branch2a"}, {"class_name": "BatchNormalization", "config": {"beta_constraint": null, "gamma_initializer": {"class_name": "Ones", "config": {}}, "moving_mean_initializer": {"class_name": "Zeros", "config": {}}, "name": "bn5c_branch2a", "epsilon": 1e-05, "trainable": false, "moving_variance_initializer": {"class_name": "Ones", "config": {}}, "freeze": true, "scale": true, "axis": 3, "gamma_regularizer": null, "gamma_constraint": null, "beta_initializer": {"class_name": "Zeros", "config": {}}, "beta_regularizer": null, "momentum": 0.99, "center": true}, "inbound_nodes": [[["res5c_branch2a", 0, 0, {}]]], "name": "bn5c_branch2a"}, {"class_name": "Activation", "config": {"activation": "relu", "trainable": false, "name": "res5c_branch2a_relu"}, "inbound_nodes": [[["bn5c_branch2a", 0, 0, {}]]], "name": "res5c_branch2a_relu"}, {"class_name": "ZeroPadding2D", "config": {"padding": [[1, 1], [1, 1]], "trainable": false, "name": "padding5c_branch2b", "data_format": "channels_last"}, "inbound_nodes": [[["res5c_branch2a_relu", 0, 0, {}]]], "name": "padding5c_branch2b"}, {"class_name": "Conv2D", "config": {"kernel_constraint": null, "kernel_initializer": {"class_name": "VarianceScaling", "config": {"distribution": "normal", "scale": 2.0, "seed": null, "mode": "fan_in"}}, "name": "res5c_branch2b", "bias_regularizer": null, "bias_constraint": null, "activation": "linear", "trainable": false, "data_format": "channels_last", "padding": "valid", "strides": [1, 1], "dilation_rate": [1, 1], "kernel_regularizer": null, "filters": 512, "bias_initializer": {"class_name": "Zeros", "config": {}}, "use_bias": false, "activity_regularizer": null, "kernel_size": [3, 3]}, "inbound_nodes": [[["padding5c_branch2b", 0, 0, {}]]], "name": "res5c_branch2b"}, {"class_name": "BatchNormalization", "config": {"beta_constraint": null, "gamma_initializer": {"class_name": "Ones", "config": {}}, "moving_mean_initializer": {"class_name": "Zeros", "config": {}}, "name": "bn5c_branch2b", "epsilon": 1e-05, "trainable": false, "moving_variance_initializer": {"class_name": "Ones", "config": {}}, "freeze": true, "scale": true, "axis": 3, "gamma_regularizer": null, "gamma_constraint": null, "beta_initializer": {"class_name": "Zeros", "config": {}}, "beta_regularizer": null, "momentum": 0.99, "center": true}, "inbound_nodes": [[["res5c_branch2b", 0, 0, {}]]], "name": "bn5c_branch2b"}, {"class_name": "Activation", "config": {"activation": "relu", "trainable": false, "name": "res5c_branch2b_relu"}, "inbound_nodes": [[["bn5c_branch2b", 0, 0, {}]]], "name": "res5c_branch2b_relu"}, {"class_name": "Conv2D", "config": {"kernel_constraint": null, "kernel_initializer": {"class_name": "VarianceScaling", "config": {"distribution": "normal", "scale": 2.0, "seed": null, "mode": "fan_in"}}, "name": "res5c_branch2c", "bias_regularizer": null, "bias_constraint": null, "activation": "linear", "trainable": false, "data_format": "channels_last", "padding": "valid", "strides": [1, 1], "dilation_rate": [1, 1], "kernel_regularizer": null, "filters": 2048, "bias_initializer": {"class_name": "Zeros", "config": {}}, "use_bias": false, "activity_regularizer": null, "kernel_size": [1, 1]}, "inbound_nodes": [[["res5c_branch2b_relu", 0, 0, {}]]], "name": "res5c_branch2c"}, {"class_name": "BatchNormalization", "config": {"beta_constraint": null, "gamma_initializer": {"class_name": "Ones", "config": {}}, "moving_mean_initializer": {"class_name": "Zeros", "config": {}}, "name": "bn5c_branch2c", "epsilon": 1e-05, "trainable": false, "moving_variance_initializer": {"class_name": "Ones", "config": {}}, "freeze": true, "scale": true, "axis": 3, "gamma_regularizer": null, "gamma_constraint": null, "beta_initializer": {"class_name": "Zeros", "config": {}}, "beta_regularizer": null, "momentum": 0.99, "center": true}, "inbound_nodes": [[["res5c_branch2c", 0, 0, {}]]], "name": "bn5c_branch2c"}, {"class_name": "Add", "config": {"trainable": false, "name": "res5c"}, "inbound_nodes": [[["bn5c_branch2c", 0, 0, {}], ["res5b_relu", 0, 0, {}]]], "name": "res5c"}, {"class_name": "Activation", "config": {"activation": "relu", "trainable": false, "name": "res5c_relu"}, "inbound_nodes": [[["res5c", 0, 0, {}]]], "name": "res5c_relu"}, {"class_name": "Conv2D", "config": {"kernel_constraint": null, "kernel_initializer": {"class_name": "VarianceScaling", "config": {"distribution": "uniform", "scale": 1.0, "seed": null, "mode": "fan_avg"}}, "name": "C5_reduced", "bias_regularizer": null, "bias_constraint": null, "activation": "linear", "trainable": false, "data_format": "channels_last", "padding": "same", "strides": [1, 1], "dilation_rate": [1, 1], "kernel_regularizer": null, "filters": 256, "bias_initializer": {"class_name": "Zeros", "config": {}}, "use_bias": true, "activity_regularizer": null, "kernel_size": [1, 1]}, "inbound_nodes": [[["res5c_relu", 0, 0, {}]]], "name": "C5_reduced"}, {"class_name": "UpsampleLike", "config": {"trainable": false, "name": "P5_upsampled"}, "inbound_nodes": [[["C5_reduced", 0, 0, {}], ["res4f_relu", 0, 0, {}]]], "name": "P5_upsampled"}, {"class_name": "Conv2D", "config": {"kernel_constraint": null, "kernel_initializer": {"class_name": "VarianceScaling", "config": {"distribution": "uniform", "scale": 1.0, "seed": null, "mode": "fan_avg"}}, "name": "C4_reduced", "bias_regularizer": null, "bias_constraint": null, "activation": "linear", "trainable": false, "data_format": "channels_last", "padding": "same", "strides": [1, 1], "dilation_rate": [1, 1], "kernel_regularizer": null, "filters": 256, "bias_initializer": {"class_name": "Zeros", "config": {}}, "use_bias": true, "activity_regularizer": null, "kernel_size": [1, 1]}, "inbound_nodes": [[["res4f_relu", 0, 0, {}]]], "name": "C4_reduced"}, {"class_name": "Add", "config": {"trainable": false, "name": "P4_merged"}, "inbound_nodes": [[["P5_upsampled", 0, 0, {}], ["C4_reduced", 0, 0, {}]]], "name": "P4_merged"}, {"class_name": "UpsampleLike", "config": {"trainable": false, "name": "P4_upsampled"}, "inbound_nodes": [[["P4_merged", 0, 0, {}], ["res3d_relu", 0, 0, {}]]], "name": "P4_upsampled"}, {"class_name": "Conv2D", "config": {"kernel_constraint": null, "kernel_initializer": {"class_name": "VarianceScaling", "config": {"distribution": "uniform", "scale": 1.0, "seed": null, "mode": "fan_avg"}}, "name": "C3_reduced", "bias_regularizer": null, "bias_constraint": null, "activation": "linear", "trainable": false, "data_format": "channels_last", "padding": "same", "strides": [1, 1], "dilation_rate": [1, 1], "kernel_regularizer": null, "filters": 256, "bias_initializer": {"class_name": "Zeros", "config": {}}, "use_bias": true, "activity_regularizer": null, "kernel_size": [1, 1]}, "inbound_nodes": [[["res3d_relu", 0, 0, {}]]], "name": "C3_reduced"}, {"class_name": "Conv2D", "config": {"kernel_constraint": null, "kernel_initializer": {"class_name": "VarianceScaling", "config": {"distribution": "uniform", "scale": 1.0, "seed": null, "mode": "fan_avg"}}, "name": "P6", "bias_regularizer": null, "bias_constraint": null, "activation": "linear", "trainable": false, "data_format": "channels_last", "padding": "same", "strides": [2, 2], "dilation_rate": [1, 1], "kernel_regularizer": null, "filters": 256, "bias_initializer": {"class_name": "Zeros", "config": {}}, "use_bias": true, "activity_regularizer": null, "kernel_size": [3, 3]}, "inbound_nodes": [[["res5c_relu", 0, 0, {}]]], "name": "P6"}, {"class_name": "Add", "config": {"trainable": false, "name": "P3_merged"}, "inbound_nodes": [[["P4_upsampled", 0, 0, {}], ["C3_reduced", 0, 0, {}]]], "name": "P3_merged"}, {"class_name": "Activation", "config": {"activation": "relu", "trainable": false, "name": "C6_relu"}, "inbound_nodes": [[["P6", 0, 0, {}]]], "name": "C6_relu"}, {"class_name": "Conv2D", "config": {"kernel_constraint": null, "kernel_initializer": {"class_name": "VarianceScaling", "config": {"distribution": "uniform", "scale": 1.0, "seed": null, "mode": "fan_avg"}}, "name": "P3", "bias_regularizer": null, "bias_constraint": null, "activation": "linear", "trainable": false, "data_format": "channels_last", "padding": "same", "strides": [1, 1], "dilation_rate": [1, 1], "kernel_regularizer": null, "filters": 256, "bias_initializer": {"class_name": "Zeros", "config": {}}, "use_bias": true, "activity_regularizer": null, "kernel_size": [3, 3]}, "inbound_nodes": [[["P3_merged", 0, 0, {}]]], "name": "P3"}, {"class_name": "Conv2D", "config": {"kernel_constraint": null, "kernel_initializer": {"class_name": "VarianceScaling", "config": {"distribution": "uniform", "scale": 1.0, "seed": null, "mode": "fan_avg"}}, "name": "P4", "bias_regularizer": null, "bias_constraint": null, "activation": "linear", "trainable": false, "data_format": "channels_last", "padding": "same", "strides": [1, 1], "dilation_rate": [1, 1], "kernel_regularizer": null, "filters": 256, "bias_initializer": {"class_name": "Zeros", "config": {}}, "use_bias": true, "activity_regularizer": null, "kernel_size": [3, 3]}, "inbound_nodes": [[["P4_merged", 0, 0, {}]]], "name": "P4"}, {"class_name": "Conv2D", "config": {"kernel_constraint": null, "kernel_initializer": {"class_name": "VarianceScaling", "config": {"distribution": "uniform", "scale": 1.0, "seed": null, "mode": "fan_avg"}}, "name": "P5", "bias_regularizer": null, "bias_constraint": null, "activation": "linear", "trainable": false, "data_format": "channels_last", "padding": "same", "strides": [1, 1], "dilation_rate": [1, 1], "kernel_regularizer": null, "filters": 256, "bias_initializer": {"class_name": "Zeros", "config": {}}, "use_bias": true, "activity_regularizer": null, "kernel_size": [3, 3]}, "inbound_nodes": [[["C5_reduced", 0, 0, {}]]], "name": "P5"}, {"class_name": "Conv2D", "config": {"kernel_constraint": null, "kernel_initializer": {"class_name": "VarianceScaling", "config": {"distribution": "uniform", "scale": 1.0, "seed": null, "mode": "fan_avg"}}, "name": "P7", "bias_regularizer": null, "bias_constraint": null, "activation": "linear", "trainable": false, "data_format": "channels_last", "padding": "same", "strides": [2, 2], "dilation_rate": [1, 1], "kernel_regularizer": null, "filters": 256, "bias_initializer": {"class_name": "Zeros", "config": {}}, "use_bias": true, "activity_regularizer": null, "kernel_size": [3, 3]}, "inbound_nodes": [[["C6_relu", 0, 0, {}]]], "name": "P7"}, {"class_name": "Model", "config": {"layers": [{"class_name": "InputLayer", "inbound_nodes": [], "config": {"dtype": "float32", "batch_input_shape": [null, null, null, 256], "name": "input_1", "sparse": false}, "name": "input_1"}, {"class_name": "Conv2D", "inbound_nodes": [[["input_1", 0, 0, {}]]], "config": {"kernel_initializer": {"class_name": "RandomNormal", "config": {"seed": null, "stddev": 0.01, "mean": 0.0}}, "name": "pyramid_regression_0", "kernel_constraint": null, "bias_regularizer": null, "bias_constraint": null, "activation": "relu", "trainable": false, "data_format": "channels_last", "padding": "same", "strides": [1, 1], "dilation_rate": [1, 1], "kernel_regularizer": null, "filters": 256, "bias_initializer": {"class_name": "Zeros", "config": {}}, "use_bias": true, "activity_regularizer": null, "kernel_size": [3, 3]}, "name": "pyramid_regression_0"}, {"class_name": "Conv2D", "inbound_nodes": [[["pyramid_regression_0", 0, 0, {}]]], "config": {"kernel_initializer": {"class_name": "RandomNormal", "config": {"seed": null, "stddev": 0.01, "mean": 0.0}}, "name": "pyramid_regression_1", "kernel_constraint": null, "bias_regularizer": null, "bias_constraint": null, "activation": "relu", "trainable": false, "data_format": "channels_last", "padding": "same", "strides": [1, 1], "dilation_rate": [1, 1], "kernel_regularizer": null, "filters": 256, "bias_initializer": {"class_name": "Zeros", "config": {}}, "use_bias": true, "activity_regularizer": null, "kernel_size": [3, 3]}, "name": "pyramid_regression_1"}, {"class_name": "Conv2D", "inbound_nodes": [[["pyramid_regression_1", 0, 0, {}]]], "config": {"kernel_initializer": {"class_name": "RandomNormal", "config": {"seed": null, "stddev": 0.01, "mean": 0.0}}, "name": "pyramid_regression_2", "kernel_constraint": null, "bias_regularizer": null, "bias_constraint": null, "activation": "relu", "trainable": false, "data_format": "channels_last", "padding": "same", "strides": [1, 1], "dilation_rate": [1, 1], "kernel_regularizer": null, "filters": 256, "bias_initializer": {"class_name": "Zeros", "config": {}}, "use_bias": true, "activity_regularizer": null, "kernel_size": [3, 3]}, "name": "pyramid_regression_2"}, {"class_name": "Conv2D", "inbound_nodes": [[["pyramid_regression_2", 0, 0, {}]]], "config": {"kernel_initializer": {"class_name": "RandomNormal", "config": {"seed": null, "stddev": 0.01, "mean": 0.0}}, "name": "pyramid_regression_3", "kernel_constraint": null, "bias_regularizer": null, "bias_constraint": null, "activation": "relu", "trainable": false, "data_format": "channels_last", "padding": "same", "strides": [1, 1], "dilation_rate": [1, 1], "kernel_regularizer": null, "filters": 256, "bias_initializer": {"class_name": "Zeros", "config": {}}, "use_bias": true, "activity_regularizer": null, "kernel_size": [3, 3]}, "name": "pyramid_regression_3"}, {"class_name": "Conv2D", "inbound_nodes": [[["pyramid_regression_3", 0, 0, {}]]], "config": {"kernel_initializer": {"class_name": "RandomNormal", "config": {"seed": null, "stddev": 0.01, "mean": 0.0}}, "name": "pyramid_regression", "kernel_constraint": null, "bias_regularizer": null, "bias_constraint": null, "activation": "linear", "trainable": false, "data_format": "channels_last", "padding": "same", "strides": [1, 1], "dilation_rate": [1, 1], "kernel_regularizer": null, "filters": 36, "bias_initializer": {"class_name": "Zeros", "config": {}}, "use_bias": true, "activity_regularizer": null, "kernel_size": [3, 3]}, "name": "pyramid_regression"}, {"class_name": "Reshape", "inbound_nodes": [[["pyramid_regression", 0, 0, {}]]], "config": {"target_shape": [-1, 4], "trainable": false, "name": "pyramid_regression_reshape"}, "name": "pyramid_regression_reshape"}], "input_layers": [["input_1", 0, 0]], "name": "regression_submodel", "output_layers": [["pyramid_regression_reshape", 0, 0]]}, "inbound_nodes": [[["P3", 0, 0, {}]], [["P4", 0, 0, {}]], [["P5", 0, 0, {}]], [["P6", 0, 0, {}]], [["P7", 0, 0, {}]]], "name": "regression_submodel"}, {"class_name": "Model", "config": {"layers": [{"class_name": "InputLayer", "inbound_nodes": [], "config": {"dtype": "float32", "batch_input_shape": [null, null, null, 256], "name": "input_2", "sparse": false}, "name": "input_2"}, {"class_name": "Conv2D", "inbound_nodes": [[["input_2", 0, 0, {}]]], "config": {"kernel_initializer": {"class_name": "RandomNormal", "config": {"seed": null, "stddev": 0.01, "mean": 0.0}}, "name": "pyramid_classification_0", "kernel_constraint": null, "bias_regularizer": null, "bias_constraint": null, "activation": "relu", "trainable": false, "data_format": "channels_last", "padding": "same", "strides": [1, 1], "dilation_rate": [1, 1], "kernel_regularizer": null, "filters": 256, "bias_initializer": {"class_name": "Zeros", "config": {}}, "use_bias": true, "activity_regularizer": null, "kernel_size": [3, 3]}, "name": "pyramid_classification_0"}, {"class_name": "Conv2D", "inbound_nodes": [[["pyramid_classification_0", 0, 0, {}]]], "config": {"kernel_initializer": {"class_name": "RandomNormal", "config": {"seed": null, "stddev": 0.01, "mean": 0.0}}, "name": "pyramid_classification_1", "kernel_constraint": null, "bias_regularizer": null, "bias_constraint": null, "activation": "relu", "trainable": false, "data_format": "channels_last", "padding": "same", "strides": [1, 1], "dilation_rate": [1, 1], "kernel_regularizer": null, "filters": 256, "bias_initializer": {"class_name": "Zeros", "config": {}}, "use_bias": true, "activity_regularizer": null, "kernel_size": [3, 3]}, "name": "pyramid_classification_1"}, {"class_name": "Conv2D", "inbound_nodes": [[["pyramid_classification_1", 0, 0, {}]]], "config": {"kernel_initializer": {"class_name": "RandomNormal", "config": {"seed": null, "stddev": 0.01, "mean": 0.0}}, "name": "pyramid_classification_2", "kernel_constraint": null, "bias_regularizer": null, "bias_constraint": null, "activation": "relu", "trainable": false, "data_format": "channels_last", "padding": "same", "strides": [1, 1], "dilation_rate": [1, 1], "kernel_regularizer": null, "filters": 256, "bias_initializer": {"class_name": "Zeros", "config": {}}, "use_bias": true, "activity_regularizer": null, "kernel_size": [3, 3]}, "name": "pyramid_classification_2"}, {"class_name": "Conv2D", "inbound_nodes": [[["pyramid_classification_2", 0, 0, {}]]], "config": {"kernel_initializer": {"class_name": "RandomNormal", "config": {"seed": null, "stddev": 0.01, "mean": 0.0}}, "name": "pyramid_classification_3", "kernel_constraint": null, "bias_regularizer": null, "bias_constraint": null, "activation": "relu", "trainable": false, "data_format": "channels_last", "padding": "same", "strides": [1, 1], "dilation_rate": [1, 1], "kernel_regularizer": null, "filters": 256, "bias_initializer": {"class_name": "Zeros", "config": {}}, "use_bias": true, "activity_regularizer": null, "kernel_size": [3, 3]}, "name": "pyramid_classification_3"}, {"class_name": "Conv2D", "inbound_nodes": [[["pyramid_classification_3", 0, 0, {}]]], "config": {"kernel_initializer": {"class_name": "Zeros", "config": {}}, "name": "pyramid_classification", "kernel_constraint": null, "bias_regularizer": null, "bias_constraint": null, "activation": "linear", "trainable": false, "data_format": "channels_last", "padding": "same", "strides": [1, 1], "dilation_rate": [1, 1], "kernel_regularizer": null, "filters": 9, "bias_initializer": {"class_name": "PriorProbability", "config": {"probability": 0.01}}, "use_bias": true, "activity_regularizer": null, "kernel_size": [3, 3]}, "name": "pyramid_classification"}, {"class_name": "Reshape", "inbound_nodes": [[["pyramid_classification", 0, 0, {}]]], "config": {"target_shape": [-1, 1], "trainable": false, "name": "pyramid_classification_reshape"}, "name": "pyramid_classification_reshape"}, {"class_name": "Activation", "inbound_nodes": [[["pyramid_classification_reshape", 0, 0, {}]]], "config": {"activation": "sigmoid", "trainable": false, "name": "pyramid_classification_sigmoid"}, "name": "pyramid_classification_sigmoid"}], "input_layers": [["input_2", 0, 0]], "name": "classification_submodel", "output_layers": [["pyramid_classification_sigmoid", 0, 0]]}, "inbound_nodes": [[["P3", 0, 0, {}]], [["P4", 0, 0, {}]], [["P5", 0, 0, {}]], [["P6", 0, 0, {}]], [["P7", 0, 0, {}]]], "name": "classification_submodel"}, {"class_name": "Model", "config": {"layers": [{"class_name": "InputLayer", "inbound_nodes": [], "config": {"dtype": "float32", "batch_input_shape": [null, null, null, 256], "name": "input_3", "sparse": false}, "name": "input_3"}, {"class_name": "Conv2D", "inbound_nodes": [[["input_3", 0, 0, {}]]], "config": {"kernel_initializer": {"class_name": "RandomNormal", "config": {"seed": null, "stddev": 0.01, "mean": 0.0}}, "name": "pyramid_iou_0", "kernel_constraint": null, "bias_regularizer": null, "bias_constraint": null, "activation": "relu", "trainable": true, "data_format": "channels_last", "padding": "same", "strides": [1, 1], "dilation_rate": [1, 1], "kernel_regularizer": null, "filters": 256, "bias_initializer": {"class_name": "Zeros", "config": {}}, "use_bias": true, "activity_regularizer": null, "kernel_size": [3, 3]}, "name": "pyramid_iou_0"}, {"class_name": "Conv2D", "inbound_nodes": [[["pyramid_iou_0", 0, 0, {}]]], "config": {"kernel_initializer": {"class_name": "RandomNormal", "config": {"seed": null, "stddev": 0.01, "mean": 0.0}}, "name": "pyramid_iou_1", "kernel_constraint": null, "bias_regularizer": null, "bias_constraint": null, "activation": "relu", "trainable": true, "data_format": "channels_last", "padding": "same", "strides": [1, 1], "dilation_rate": [1, 1], "kernel_regularizer": null, "filters": 256, "bias_initializer": {"class_name": "Zeros", "config": {}}, "use_bias": true, "activity_regularizer": null, "kernel_size": [3, 3]}, "name": "pyramid_iou_1"}, {"class_name": "Conv2D", "inbound_nodes": [[["pyramid_iou_1", 0, 0, {}]]], "config": {"kernel_initializer": {"class_name": "RandomNormal", "config": {"seed": null, "stddev": 0.01, "mean": 0.0}}, "name": "pyramid_iou_2", "kernel_constraint": null, "bias_regularizer": null, "bias_constraint": null, "activation": "relu", "trainable": true, "data_format": "channels_last", "padding": "same", "strides": [1, 1], "dilation_rate": [1, 1], "kernel_regularizer": null, "filters": 256, "bias_initializer": {"class_name": "Zeros", "config": {}}, "use_bias": true, "activity_regularizer": null, "kernel_size": [3, 3]}, "name": "pyramid_iou_2"}, {"class_name": "Conv2D", "inbound_nodes": [[["pyramid_iou_2", 0, 0, {}]]], "config": {"kernel_initializer": {"class_name": "RandomNormal", "config": {"seed": null, "stddev": 0.01, "mean": 0.0}}, "name": "pyramid_iou_3", "kernel_constraint": null, "bias_regularizer": null, "bias_constraint": null, "activation": "relu", "trainable": true, "data_format": "channels_last", "padding": "same", "strides": [1, 1], "dilation_rate": [1, 1], "kernel_regularizer": null, "filters": 256, "bias_initializer": {"class_name": "Zeros", "config": {}}, "use_bias": true, "activity_regularizer": null, "kernel_size": [3, 3]}, "name": "pyramid_iou_3"}, {"class_name": "Conv2D", "inbound_nodes": [[["pyramid_iou_3", 0, 0, {}]]], "config": {"kernel_initializer": {"class_name": "RandomNormal", "config": {"seed": null, "stddev": 0.01, "mean": 0.0}}, "name": "pyramid_iou", "kernel_constraint": null, "bias_regularizer": null, "bias_constraint": null, "activation": "linear", "trainable": true, "data_format": "channels_last", "padding": "same", "strides": [1, 1], "dilation_rate": [1, 1], "kernel_regularizer": null, "filters": 9, "bias_initializer": {"class_name": "Zeros", "config": {}}, "use_bias": true, "activity_regularizer": null, "kernel_size": [3, 3]}, "name": "pyramid_iou"}, {"class_name": "Reshape", "inbound_nodes": [[["pyramid_iou", 0, 0, {}]]], "config": {"target_shape": [-1, 1], "trainable": true, "name": "pyramid_iou_reshape"}, "name": "pyramid_iou_reshape"}, {"class_name": "Activation", "inbound_nodes": [[["pyramid_iou_reshape", 0, 0, {}]]], "config": {"activation": "sigmoid", "trainable": true, "name": "pyramid_iou_sigmoid"}, "name": "pyramid_iou_sigmoid"}], "input_layers": [["input_3", 0, 0]], "name": "iou_submodel", "output_layers": [["pyramid_iou_sigmoid", 0, 0]]}, "inbound_nodes": [[["P3", 0, 0, {}]], [["P4", 0, 0, {}]], [["P5", 0, 0, {}]], [["P6", 0, 0, {}]], [["P7", 0, 0, {}]]], "name": "iou_submodel"}, {"class_name": "Concatenate", "config": {"trainable": false, "name": "regression", "axis": 1}, "inbound_nodes": [[["regression_submodel", 1, 0, {}], ["regression_submodel", 2, 0, {}], ["regression_submodel", 3, 0, {}], ["regression_submodel", 4, 0, {}], ["regression_submodel", 5, 0, {}]]], "name": "regression"}, {"class_name": "Concatenate", "config": {"trainable": false, "name": "classification", "axis": 1}, "inbound_nodes": [[["classification_submodel", 1, 0, {}], ["classification_submodel", 2, 0, {}], ["classification_submodel", 3, 0, {}], ["classification_submodel", 4, 0, {}], ["classification_submodel", 5, 0, {}]]], "name": "classification"}, {"class_name": "Concatenate", "config": {"trainable": true, "name": "iou", "axis": 1}, "inbound_nodes": [[["iou_submodel", 1, 0, {}], ["iou_submodel", 2, 0, {}], ["iou_submodel", 3, 0, {}], ["iou_submodel", 4, 0, {}], ["iou_submodel", 5, 0, {}]]], "name": "iou"}], "input_layers": [["input_4", 0, 0]], "output_layers": [["regression", 0, 0], ["classification", 0, 0], ["iou", 0, 0]], "name": "retinanet"}}}, "weightsManifest": [{"paths": ["group1-shard1of10.bin", "group1-shard2of10.bin", "group1-shard3of10.bin", "group1-shard4of10.bin", "group1-shard5of10.bin", "group1-shard6of10.bin", "group1-shard7of10.bin", "group1-shard8of10.bin", "group1-shard9of10.bin", "group1-shard10of10.bin"], "weights": [{"name": "C3_reduced/kernel", "shape": [1, 1, 512, 256], "dtype": "float32", "quantization": {"dtype": "uint8", "min": -0.09921334631302778, "scale": 0.0007874075104208554, "original_dtype": "float32"}}, {"name": "C3_reduced/bias", "shape": [256], "dtype": "float32", "quantization": {"dtype": "uint8", "min": -0.003601544886352677, "scale": 2.7492709056127307e-05, "original_dtype": "float32"}}, {"name": "C4_reduced/kernel", "shape": [1, 1, 1024, 256], "dtype": "float32", "quantization": {"dtype": "uint8", "min": -0.08129821495682586, "scale": 0.0006401434248568965, "original_dtype": "float32"}}, {"name": "C4_reduced/bias", "shape": [256], "dtype": "float32", "quantization": {"dtype": "uint8", "min": -0.005437642197106399, "scale": 4.0884527797792474e-05, "original_dtype": "float32"}}, {"name": "C5_reduced/kernel", "shape": [1, 1, 2048, 256], "dtype": "float32", "quantization": {"dtype": "uint8", "min": -0.05745356976985932, "scale": 0.00045239031314849856, "original_dtype": "float32"}}, {"name": "C5_reduced/bias", "shape": [256], "dtype": "float32", "quantization": {"dtype": "uint8", "min": -0.005278723139096709, "scale": 4.0920334411602394e-05, "original_dtype": "float32"}}, {"name": "P3/kernel", "shape": [3, 3, 256, 256], "dtype": "float32", "quantization": {"dtype": "uint8", "min": -0.04542608635098327, "scale": 0.0003548912996170568, "original_dtype": "float32"}}, {"name": "P3/bias", "shape": [256], "dtype": "float32", "quantization": {"dtype": "uint8", "min": -0.004292816453266377, "scale": 2.9605630712181913e-05, "original_dtype": "float32"}}, {"name": "P4/kernel", "shape": [3, 3, 256, 256], "dtype": "float32", "quantization": {"dtype": "uint8", "min": -0.044089610816216936, "scale": 0.000339150852432438, "original_dtype": "float32"}}, {"name": "P4/bias", "shape": [256], "dtype": "float32", "quantization": {"dtype": "uint8", "min": -0.002676060087248391, "scale": 2.267847531566433e-05, "original_dtype": "float32"}}, {"name": "P5/kernel", "shape": [3, 3, 256, 256], "dtype": "float32", "quantization": {"dtype": "uint8", "min": -0.04069955863204657, "scale": 0.00031796530181286384, "original_dtype": "float32"}}, {"name": "P5/bias", "shape": [256], "dtype": "float32", "quantization": {"dtype": "uint8", "min": -0.0007952350675694499, "scale": 6.117192827457306e-06, "original_dtype": "float32"}}, {"name": "P6/kernel", "shape": [3, 3, 2048, 256], "dtype": "float32", "quantization": {"dtype": "uint8", "min": -0.017959541725177393, "scale": 0.00014141371437147553, "original_dtype": "float32"}}, {"name": "P6/bias", "shape": [256], "dtype": "float32", "quantization": {"dtype": "uint8", "min": -3.912340308649137e-05, "scale": 3.431877463727313e-07, "original_dtype": "float32"}}, {"name": "P7/kernel", "shape": [3, 3, 256, 256], "dtype": "float32", "quantization": {"dtype": "uint8", "min": -0.03596683249754064, "scale": 0.000283203405492446, "original_dtype": "float32"}}, {"name": "P7/bias", "shape": [256], "dtype": "float32", "quantization": {"dtype": "uint8", "min": -6.562932874515479e-06, "scale": 5.423911466541718e-08, "original_dtype": "float32"}}, {"name": "bn2a_branch1/gamma", "shape": [256], "dtype": "float32", "quantization": {"dtype": "uint8", "min": 0.0043527209199965, "scale": 0.012000088939698887, "original_dtype": "float32"}}, {"name": "bn2a_branch1/beta", "shape": [256], "dtype": "float32", "quantization": {"dtype": "uint8", "min": -1.1212190571953269, "scale": 0.010381657936993768, "original_dtype": "float32"}}, {"name": "bn2a_branch1/moving_mean", "shape": [256], "dtype": "float32", "quantization": {"dtype": "uint8", "min": -6.6734639036889165, "scale": 0.06416792215085497, "original_dtype": "float32"}}, {"name": "bn2a_branch1/moving_variance", "shape": [256], "dtype": "float32", "quantization": {"dtype": "uint8", "min": 1.1424858712416608e-06, "scale": 0.028734928213443887, "original_dtype": "float32"}}, {"name": "bn2a_branch2a/gamma", "shape": [64], "dtype": "float32", "quantization": {"dtype": "uint8", "min": 0.5092175602912903, "scale": 0.006105371316274007, "original_dtype": "float32"}}, {"name": "bn2a_branch2a/beta", "shape": [64], "dtype": "float32", "quantization": {"dtype": "uint8", "min": -2.407364273071289, "scale": 0.023601610520306755, "original_dtype": "float32"}}, {"name": "bn2a_branch2a/moving_mean", "shape": [64], "dtype": "float32", "quantization": {"dtype": "uint8", "min": -4.6082068948184745, "scale": 0.04800215515435911, "original_dtype": "float32"}}, {"name": "bn2a_branch2a/moving_variance", "shape": [64], "dtype": "float32", "quantization": {"dtype": "uint8", "min": 0.05220366269350052, "scale": 0.03419518000354954, "original_dtype": "float32"}}, {"name": "bn2a_branch2b/gamma", "shape": [64], "dtype": "float32", "quantization": {"dtype": "uint8", "min": 0.4204263389110565, "scale": 0.008271011768602857, "original_dtype": "float32"}}, {"name": "bn2a_branch2b/beta", "shape": [64], "dtype": "float32", "quantization": {"dtype": "uint8", "min": -2.282603148853078, "scale": 0.032149340124691235, "original_dtype": "float32"}}, {"name": "bn2a_branch2b/moving_mean", "shape": [64], "dtype": "float32", "quantization": {"dtype": "uint8", "min": -4.013449042451148, "scale": 0.027489377003090055, "original_dtype": "float32"}}, {"name": "bn2a_branch2b/moving_variance", "shape": [64], "dtype": "float32", "quantization": {"dtype": "uint8", "min": 0.12235629558563232, "scale": 0.08373277000352448, "original_dtype": "float32"}}, {"name": "bn2a_branch2c/gamma", "shape": [256], "dtype": "float32", "quantization": {"dtype": "uint8", "min": 0.011003042571246624, "scale": 0.011015497370823926, "original_dtype": "float32"}}, {"name": "bn2a_branch2c/beta", "shape": [256], "dtype": "float32", "quantization": {"dtype": "uint8", "min": -1.1212190571953269, "scale": 0.010381657936993768, "original_dtype": "float32"}}, {"name": "bn2a_branch2c/moving_mean", "shape": [256], "dtype": "float32", "quantization": {"dtype": "uint8", "min": -2.005644028794532, "scale": 0.015080030291688208, "original_dtype": "float32"}}, {"name": "bn2a_branch2c/moving_variance", "shape": [256], "dtype": "float32", "quantization": {"dtype": "uint8", "min": 8.595875442551915e-07, "scale": 0.008380246063894875, "original_dtype": "float32"}}, {"name": "bn2b_branch2a/gamma", "shape": [64], "dtype": "float32", "quantization": {"dtype": "uint8", "min": 0.7461968660354614, "scale": 0.004716993313209683, "original_dtype": "float32"}}, {"name": "bn2b_branch2a/beta", "shape": [64], "dtype": "float32", "quantization": {"dtype": "uint8", "min": -1.6905940897324507, "scale": 0.012807530982821596, "original_dtype": "float32"}}, {"name": "bn2b_branch2a/moving_mean", "shape": [64], "dtype": "float32", "quantization": {"dtype": "uint8", "min": -2.515720709632425, "scale": 0.014213111353855508, "original_dtype": "float32"}}, {"name": "bn2b_branch2a/moving_variance", "shape": [64], "dtype": "float32", "quantization": {"dtype": "uint8", "min": 0.22886011004447937, "scale": 0.007600936819525326, "original_dtype": "float32"}}, {"name": "bn2b_branch2b/gamma", "shape": [64], "dtype": "float32", "quantization": {"dtype": "uint8", "min": 0.6205095648765564, "scale": 0.003910624980926513, "original_dtype": "float32"}}, {"name": "bn2b_branch2b/beta", "shape": [64], "dtype": "float32", "quantization": {"dtype": "uint8", "min": -2.002034819359873, "scale": 0.01725892085655063, "original_dtype": "float32"}}, {"name": "bn2b_branch2b/moving_mean", "shape": [64], "dtype": "float32", "quantization": {"dtype": "uint8", "min": -1.3406322282903333, "scale": 0.008937548188602222, "original_dtype": "float32"}}, {"name": "bn2b_branch2b/moving_variance", "shape": [64], "dtype": "float32", "quantization": {"dtype": "uint8", "min": 0.16632837057113647, "scale": 0.003731702122033811, "original_dtype": "float32"}}, {"name": "bn2b_branch2c/gamma", "shape": [256], "dtype": "float32", "quantization": {"dtype": "uint8", "min": -0.01683870656233208, "scale": 0.00841935328116604, "original_dtype": "float32"}}, {"name": "bn2b_branch2c/beta", "shape": [256], "dtype": "float32", "quantization": {"dtype": "uint8", "min": -1.7073775693482043, "scale": 0.011775017719642789, "original_dtype": "float32"}}, {"name": "bn2b_branch2c/moving_mean", "shape": [256], "dtype": "float32", "quantization": {"dtype": "uint8", "min": -1.086528488935209, "scale": 0.008169387134851195, "original_dtype": "float32"}}, {"name": "bn2b_branch2c/moving_variance", "shape": [256], "dtype": "float32", "quantization": {"dtype": "uint8", "min": 0.0003367012832313776, "scale": 0.0006959895502921998, "original_dtype": "float32"}}, {"name": "bn2c_branch2a/gamma", "shape": [64], "dtype": "float32", "quantization": {"dtype": "uint8", "min": 0.5740686058998108, "scale": 0.004368531236461565, "original_dtype": "float32"}}, {"name": "bn2c_branch2a/beta", "shape": [64], "dtype": "float32", "quantization": {"dtype": "uint8", "min": -1.8731157200009216, "scale": 0.011634259130440507, "original_dtype": "float32"}}, {"name": "bn2c_branch2a/moving_mean", "shape": [64], "dtype": "float32", "quantization": {"dtype": "uint8", "min": -1.9946179759268665, "scale": 0.014349769610984652, "original_dtype": "float32"}}, {"name": "bn2c_branch2a/moving_variance", "shape": [64], "dtype": "float32", "quantization": {"dtype": "uint8", "min": 2.1013129298808053e-06, "scale": 0.009826357398738836, "original_dtype": "float32"}}, {"name": "bn2c_branch2b/gamma", "shape": [64], "dtype": "float32", "quantization": {"dtype": "uint8", "min": 0.7570450901985168, "scale": 0.0034989546327029958, "original_dtype": "float32"}}, {"name": "bn2c_branch2b/beta", "shape": [64], "dtype": "float32", "quantization": {"dtype": "uint8", "min": -2.2182499548968146, "scale": 0.016074275035484163, "original_dtype": "float32"}}, {"name": "bn2c_branch2b/moving_mean", "shape": [64], "dtype": "float32", "quantization": {"dtype": "uint8", "min": -1.3440699354106305, "scale": 0.006369999693889244, "original_dtype": "float32"}}, {"name": "bn2c_branch2b/moving_variance", "shape": [64], "dtype": "float32", "quantization": {"dtype": "uint8", "min": 0.1354680061340332, "scale": 0.002801717028898351, "original_dtype": "float32"}}, {"name": "bn2c_branch2c/gamma", "shape": [256], "dtype": "float32", "quantization": {"dtype": "uint8", "min": -0.060734340373207546, "scale": 0.008676334339029649, "original_dtype": "float32"}}, {"name": "bn2c_branch2c/beta", "shape": [256], "dtype": "float32", "quantization": {"dtype": "uint8", "min": -1.5705417647081263, "scale": 0.012174742362078498, "original_dtype": "float32"}}, {"name": "bn2c_branch2c/moving_mean", "shape": [256], "dtype": "float32", "quantization": {"dtype": "uint8", "min": -1.087880879757451, "scale": 0.008304434196621763, "original_dtype": "float32"}}, {"name": "bn2c_branch2c/moving_variance", "shape": [256], "dtype": "float32", "quantization": {"dtype": "uint8", "min": 0.0005230105016380548, "scale": 0.0012333919814623453, "original_dtype": "float32"}}, {"name": "bn3a_branch1/gamma", "shape": [512], "dtype": "float32", "quantization": {"dtype": "uint8", "min": 0.005530852824449539, "scale": 0.009985768488224816, "original_dtype": "float32"}}, {"name": "bn3a_branch1/beta", "shape": [512], "dtype": "float32", "quantization": {"dtype": "uint8", "min": -1.5489482122309068, "scale": 0.010985448313694374, "original_dtype": "float32"}}, {"name": "bn3a_branch1/moving_mean", "shape": [512], "dtype": "float32", "quantization": {"dtype": "uint8", "min": -2.3862001419067385, "scale": 0.020052102032829734, "original_dtype": "float32"}}, {"name": "bn3a_branch1/moving_variance", "shape": [512], "dtype": "float32", "quantization": {"dtype": "uint8", "min": 0.0026763337664306164, "scale": 0.01592315098124684, "original_dtype": "float32"}}, {"name": "bn3a_branch2a/gamma", "shape": [128], "dtype": "float32", "quantization": {"dtype": "uint8", "min": 0.6103370785713196, "scale": 0.004047261266147389, "original_dtype": "float32"}}, {"name": "bn3a_branch2a/beta", "shape": [128], "dtype": "float32", "quantization": {"dtype": "uint8", "min": -1.5792655954173966, "scale": 0.011874177409153358, "original_dtype": "float32"}}, {"name": "bn3a_branch2a/moving_mean", "shape": [128], "dtype": "float32", "quantization": {"dtype": "uint8", "min": -2.9416965933407053, "scale": 0.018158620946547563, "original_dtype": "float32"}}, {"name": "bn3a_branch2a/moving_variance", "shape": [128], "dtype": "float32", "quantization": {"dtype": "uint8", "min": 0.17527830600738525, "scale": 0.009377583802915087, "original_dtype": "float32"}}, {"name": "bn3a_branch2b/gamma", "shape": [128], "dtype": "float32", "quantization": {"dtype": "uint8", "min": 0.6048915386199951, "scale": 0.003987195445042031, "original_dtype": "float32"}}, {"name": "bn3a_branch2b/beta", "shape": [128], "dtype": "float32", "quantization": {"dtype": "uint8", "min": -2.762347507476807, "scale": 0.01770735581715902, "original_dtype": "float32"}}, {"name": "bn3a_branch2b/moving_mean", "shape": [128], "dtype": "float32", "quantization": {"dtype": "uint8", "min": -4.103226992663215, "scale": 0.023855970887576832, "original_dtype": "float32"}}, {"name": "bn3a_branch2b/moving_variance", "shape": [128], "dtype": "float32", "quantization": {"dtype": "uint8", "min": 0.23013627529144287, "scale": 0.0075141500024234545, "original_dtype": "float32"}}, {"name": "bn3a_branch2c/gamma", "shape": [512], "dtype": "float32", "quantization": {"dtype": "uint8", "min": -0.010732674043552548, "scale": 0.010732674043552548, "original_dtype": "float32"}}, {"name": "bn3a_branch2c/beta", "shape": [512], "dtype": "float32", "quantization": {"dtype": "uint8", "min": -1.5489482122309068, "scale": 0.010985448313694374, "original_dtype": "float32"}}, {"name": "bn3a_branch2c/moving_mean", "shape": [512], "dtype": "float32", "quantization": {"dtype": "uint8", "min": -1.0709070808747234, "scale": 0.008432339219486011, "original_dtype": "float32"}}, {"name": "bn3a_branch2c/moving_variance", "shape": [512], "dtype": "float32", "quantization": {"dtype": "uint8", "min": 0.000684088678099215, "scale": 0.001741085191914702, "original_dtype": "float32"}}, {"name": "bn3b_branch2a/gamma", "shape": [128], "dtype": "float32", "quantization": {"dtype": "uint8", "min": 0.5784836411476135, "scale": 0.003334476667291978, "original_dtype": "float32"}}, {"name": "bn3b_branch2a/beta", "shape": [128], "dtype": "float32", "quantization": {"dtype": "uint8", "min": -4.356083624503192, "scale": 0.01936037166445863, "original_dtype": "float32"}}, {"name": "bn3b_branch2a/moving_mean", "shape": [128], "dtype": "float32", "quantization": {"dtype": "uint8", "min": -2.0983867205825506, "scale": 0.01362588779599059, "original_dtype": "float32"}}, {"name": "bn3b_branch2a/moving_variance", "shape": [128], "dtype": "float32", "quantization": {"dtype": "uint8", "min": 4.261433787178248e-06, "scale": 0.009396902838175175, "original_dtype": "float32"}}, {"name": "bn3b_branch2b/gamma", "shape": [128], "dtype": "float32", "quantization": {"dtype": "uint8", "min": 0.5107861161231995, "scale": 0.005032846740647859, "original_dtype": "float32"}}, {"name": "bn3b_branch2b/beta", "shape": [128], "dtype": "float32", "quantization": {"dtype": "uint8", "min": -3.8310447145910826, "scale": 0.020270077854979272, "original_dtype": "float32"}}, {"name": "bn3b_branch2b/moving_mean", "shape": [128], "dtype": "float32", "quantization": {"dtype": "uint8", "min": -1.4234880466087192, "scale": 0.009954461864396637, "original_dtype": "float32"}}, {"name": "bn3b_branch2b/moving_variance", "shape": [128], "dtype": "float32", "quantization": {"dtype": "uint8", "min": 0.17664289474487305, "scale": 0.0022617978208205277, "original_dtype": "float32"}}, {"name": "bn3b_branch2c/gamma", "shape": [512], "dtype": "float32", "quantization": {"dtype": "uint8", "min": -0.06883143630682254, "scale": 0.008603929538352817, "original_dtype": "float32"}}, {"name": "bn3b_branch2c/beta", "shape": [512], "dtype": "float32", "quantization": {"dtype": "uint8", "min": -1.5066896102007699, "scale": 0.010463122293060902, "original_dtype": "float32"}}, {"name": "bn3b_branch2c/moving_mean", "shape": [512], "dtype": "float32", "quantization": {"dtype": "uint8", "min": -0.625652100058163, "scale": 0.004344806250403909, "original_dtype": "float32"}}, {"name": "bn3b_branch2c/moving_variance", "shape": [512], "dtype": "float32", "quantization": {"dtype": "uint8", "min": 0.00038828252581879497, "scale": 0.0006010980466289409, "original_dtype": "float32"}}, {"name": "bn3c_branch2a/gamma", "shape": [128], "dtype": "float32", "quantization": {"dtype": "uint8", "min": 0.40599995851516724, "scale": 0.005057214989381678, "original_dtype": "float32"}}, {"name": "bn3c_branch2a/beta", "shape": [128], "dtype": "float32", "quantization": {"dtype": "uint8", "min": -2.693256499720555, "scale": 0.018197679052165912, "original_dtype": "float32"}}, {"name": "bn3c_branch2a/moving_mean", "shape": [128], "dtype": "float32", "quantization": {"dtype": "uint8", "min": -1.8729887948316688, "scale": 0.013283608473983466, "original_dtype": "float32"}}, {"name": "bn3c_branch2a/moving_variance", "shape": [128], "dtype": "float32", "quantization": {"dtype": "uint8", "min": 0.18360655009746552, "scale": 0.044506191097053824, "original_dtype": "float32"}}, {"name": "bn3c_branch2b/gamma", "shape": [128], "dtype": "float32", "quantization": {"dtype": "uint8", "min": 0.46005693078041077, "scale": 0.0067400889069426295, "original_dtype": "float32"}}, {"name": "bn3c_branch2b/beta", "shape": [128], "dtype": "float32", "quantization": {"dtype": "uint8", "min": -1.5868688835817226, "scale": 0.008531553137536143, "original_dtype": "float32"}}, {"name": "bn3c_branch2b/moving_mean", "shape": [128], "dtype": "float32", "quantization": {"dtype": "uint8", "min": -1.4762281011132634, "scale": 0.012617334197549259, "original_dtype": "float32"}}, {"name": "bn3c_branch2b/moving_variance", "shape": [128], "dtype": "float32", "quantization": {"dtype": "uint8", "min": 0.08016139268875122, "scale": 0.0070762005506777295, "original_dtype": "float32"}}, {"name": "bn3c_branch2c/gamma", "shape": [512], "dtype": "float32", "quantization": {"dtype": "uint8", "min": -0.0, "scale": 0.011953397232162603, "original_dtype": "float32"}}, {"name": "bn3c_branch2c/beta", "shape": [512], "dtype": "float32", "quantization": {"dtype": "uint8", "min": -2.3679071010327806, "scale": 0.011013521400152469, "original_dtype": "float32"}}, {"name": "bn3c_branch2c/moving_mean", "shape": [512], "dtype": "float32", "quantization": {"dtype": "uint8", "min": -0.521700945554995, "scale": 0.004013084196576885, "original_dtype": "float32"}}, {"name": "bn3c_branch2c/moving_variance", "shape": [512], "dtype": "float32", "quantization": {"dtype": "uint8", "min": 0.00010034152364823967, "scale": 0.0008596383587014405, "original_dtype": "float32"}}, {"name": "bn3d_branch2a/gamma", "shape": [128], "dtype": "float32", "quantization": {"dtype": "uint8", "min": 0.7355023622512817, "scale": 0.006505683356640386, "original_dtype": "float32"}}, {"name": "bn3d_branch2a/beta", "shape": [128], "dtype": "float32", "quantization": {"dtype": "uint8", "min": -2.6395202300127814, "scale": 0.013330910252589805, "original_dtype": "float32"}}, {"name": "bn3d_branch2a/moving_mean", "shape": [128], "dtype": "float32", "quantization": {"dtype": "uint8", "min": -1.5174549962960038, "scale": 0.01107631384157667, "original_dtype": "float32"}}, {"name": "bn3d_branch2a/moving_variance", "shape": [128], "dtype": "float32", "quantization": {"dtype": "uint8", "min": 0.3949695825576782, "scale": 0.008236408701129988, "original_dtype": "float32"}}, {"name": "bn3d_branch2b/gamma", "shape": [128], "dtype": "float32", "quantization": {"dtype": "uint8", "min": 0.6816897988319397, "scale": 0.003971695666219674, "original_dtype": "float32"}}, {"name": "bn3d_branch2b/beta", "shape": [128], "dtype": "float32", "quantization": {"dtype": "uint8", "min": -1.3599304549834308, "scale": 0.011623337222080605, "original_dtype": "float32"}}, {"name": "bn3d_branch2b/moving_mean", "shape": [128], "dtype": "float32", "quantization": {"dtype": "uint8", "min": -1.3801050298354205, "scale": 0.011795769485772824, "original_dtype": "float32"}}, {"name": "bn3d_branch2b/moving_variance", "shape": [128], "dtype": "float32", "quantization": {"dtype": "uint8", "min": 0.2500532567501068, "scale": 0.004850879954356773, "original_dtype": "float32"}}, {"name": "bn3d_branch2c/gamma", "shape": [512], "dtype": "float32", "quantization": {"dtype": "uint8", "min": -0.006783438762467281, "scale": 0.006783438762467281, "original_dtype": "float32"}}, {"name": "bn3d_branch2c/beta", "shape": [512], "dtype": "float32", "quantization": {"dtype": "uint8", "min": -1.8958592868318744, "scale": 0.012075536858801748, "original_dtype": "float32"}}, {"name": "bn3d_branch2c/moving_mean", "shape": [512], "dtype": "float32", "quantization": {"dtype": "uint8", "min": -0.9014393289883932, "scale": 0.007575120411667169, "original_dtype": "float32"}}, {"name": "bn3d_branch2c/moving_variance", "shape": [512], "dtype": "float32", "quantization": {"dtype": "uint8", "min": 0.00021288255811668932, "scale": 0.0009332763034549049, "original_dtype": "float32"}}, {"name": "bn4a_branch1/gamma", "shape": [1024], "dtype": "float32", "quantization": {"dtype": "uint8", "min": 0.033979933708906174, "scale": 0.010765537400456035, "original_dtype": "float32"}}, {"name": "bn4a_branch1/beta", "shape": [1024], "dtype": "float32", "quantization": {"dtype": "uint8", "min": -0.9375835227031333, "scale": 0.007157126127504835, "original_dtype": "float32"}}, {"name": "bn4a_branch1/moving_mean", "shape": [1024], "dtype": "float32", "quantization": {"dtype": "uint8", "min": -1.9995872030071182, "scale": 0.016390059041041953, "original_dtype": "float32"}}, {"name": "bn4a_branch1/moving_variance", "shape": [1024], "dtype": "float32", "quantization": {"dtype": "uint8", "min": 0.015027696266770363, "scale": 0.01128271820352358, "original_dtype": "float32"}}, {"name": "bn4a_branch2a/gamma", "shape": [256], "dtype": "float32", "quantization": {"dtype": "uint8", "min": 0.6213442087173462, "scale": 0.003980505232717477, "original_dtype": "float32"}}, {"name": "bn4a_branch2a/beta", "shape": [256], "dtype": "float32", "quantization": {"dtype": "uint8", "min": -1.4199508580507016, "scale": 0.009160973277746462, "original_dtype": "float32"}}, {"name": "bn4a_branch2a/moving_mean", "shape": [256], "dtype": "float32", "quantization": {"dtype": "uint8", "min": -1.7981004051133698, "scale": 0.012315756199406643, "original_dtype": "float32"}}, {"name": "bn4a_branch2a/moving_variance", "shape": [256], "dtype": "float32", "quantization": {"dtype": "uint8", "min": 0.40585967898368835, "scale": 0.008409963986452888, "original_dtype": "float32"}}, {"name": "bn4a_branch2b/gamma", "shape": [256], "dtype": "float32", "quantization": {"dtype": "uint8", "min": 0.5854782462120056, "scale": 0.0045634833036684525, "original_dtype": "float32"}}, {"name": "bn4a_branch2b/beta", "shape": [256], "dtype": "float32", "quantization": {"dtype": "uint8", "min": -1.8394469747356341, "scale": 0.012685841205073338, "original_dtype": "float32"}}, {"name": "bn4a_branch2b/moving_mean", "shape": [256], "dtype": "float32", "quantization": {"dtype": "uint8", "min": -4.137841998829561, "scale": 0.031347287869920915, "original_dtype": "float32"}}, {"name": "bn4a_branch2b/moving_variance", "shape": [256], "dtype": "float32", "quantization": {"dtype": "uint8", "min": 0.34219133853912354, "scale": 0.01904629492292217, "original_dtype": "float32"}}, {"name": "bn4a_branch2c/gamma", "shape": [1024], "dtype": "float32", "quantization": {"dtype": "uint8", "min": 0.07113350182771683, "scale": 0.009002757043230768, "original_dtype": "float32"}}, {"name": "bn4a_branch2c/beta", "shape": [1024], "dtype": "float32", "quantization": {"dtype": "uint8", "min": -0.9375835227031333, "scale": 0.007157126127504835, "original_dtype": "float32"}}, {"name": "bn4a_branch2c/moving_mean", "shape": [1024], "dtype": "float32", "quantization": {"dtype": "uint8", "min": -0.7359124983058256, "scale": 0.004906083322038838, "original_dtype": "float32"}}, {"name": "bn4a_branch2c/moving_variance", "shape": [1024], "dtype": "float32", "quantization": {"dtype": "uint8", "min": 0.005249861162155867, "scale": 0.001388090251780608, "original_dtype": "float32"}}, {"name": "bn4b_branch2a/gamma", "shape": [256], "dtype": "float32", "quantization": {"dtype": "uint8", "min": 0.5655062198638916, "scale": 0.004619026184082031, "original_dtype": "float32"}}, {"name": "bn4b_branch2a/beta", "shape": [256], "dtype": "float32", "quantization": {"dtype": "uint8", "min": -2.702526631074793, "scale": 0.014687644734102136, "original_dtype": "float32"}}, {"name": "bn4b_branch2a/moving_mean", "shape": [256], "dtype": "float32", "quantization": {"dtype": "uint8", "min": -5.852475035424326, "scale": 0.03163500019148284, "original_dtype": "float32"}}, {"name": "bn4b_branch2a/moving_variance", "shape": [256], "dtype": "float32", "quantization": {"dtype": "uint8", "min": 0.36715057492256165, "scale": 0.015014005992926804, "original_dtype": "float32"}}, {"name": "bn4b_branch2b/gamma", "shape": [256], "dtype": "float32", "quantization": {"dtype": "uint8", "min": 0.5147577524185181, "scale": 0.00700385570526123, "original_dtype": "float32"}}, {"name": "bn4b_branch2b/beta", "shape": [256], "dtype": "float32", "quantization": {"dtype": "uint8", "min": -2.556510229671703, "scale": 0.017273717768052047, "original_dtype": "float32"}}, {"name": "bn4b_branch2b/moving_mean", "shape": [256], "dtype": "float32", "quantization": {"dtype": "uint8", "min": -2.377994551378138, "scale": 0.014070973676793715, "original_dtype": "float32"}}, {"name": "bn4b_branch2b/moving_variance", "shape": [256], "dtype": "float32", "quantization": {"dtype": "uint8", "min": 0.10513381659984589, "scale": 0.00478037087356343, "original_dtype": "float32"}}, {"name": "bn4b_branch2c/gamma", "shape": [1024], "dtype": "float32", "quantization": {"dtype": "uint8", "min": 0.05497802793979645, "scale": 0.007403893973313126, "original_dtype": "float32"}}, {"name": "bn4b_branch2c/beta", "shape": [1024], "dtype": "float32", "quantization": {"dtype": "uint8", "min": -1.6495784834319471, "scale": 0.010440370148303462, "original_dtype": "float32"}}, {"name": "bn4b_branch2c/moving_mean", "shape": [1024], "dtype": "float32", "quantization": {"dtype": "uint8", "min": -0.431716503349005, "scale": 0.0029569623517055137, "original_dtype": "float32"}}, {"name": "bn4b_branch2c/moving_variance", "shape": [1024], "dtype": "float32", "quantization": {"dtype": "uint8", "min": 0.0014270668616518378, "scale": 0.0004776426193797413, "original_dtype": "float32"}}, {"name": "bn4c_branch2a/gamma", "shape": [256], "dtype": "float32", "quantization": {"dtype": "uint8", "min": 0.4627031981945038, "scale": 0.005580297287772684, "original_dtype": "float32"}}, {"name": "bn4c_branch2a/beta", "shape": [256], "dtype": "float32", "quantization": {"dtype": "uint8", "min": -2.399995290999319, "scale": 0.011320732504713769, "original_dtype": "float32"}}, {"name": "bn4c_branch2a/moving_mean", "shape": [256], "dtype": "float32", "quantization": {"dtype": "uint8", "min": -2.171348979893853, "scale": 0.013656282892414167, "original_dtype": "float32"}}, {"name": "bn4c_branch2a/moving_variance", "shape": [256], "dtype": "float32", "quantization": {"dtype": "uint8", "min": 0.31561028957366943, "scale": 0.013274288644977645, "original_dtype": "float32"}}, {"name": "bn4c_branch2b/gamma", "shape": [256], "dtype": "float32", "quantization": {"dtype": "uint8", "min": 0.5552687048912048, "scale": 0.005275631184671439, "original_dtype": "float32"}}, {"name": "bn4c_branch2b/beta", "shape": [256], "dtype": "float32", "quantization": {"dtype": "uint8", "min": -1.6561929513426388, "scale": 0.009252474588506362, "original_dtype": "float32"}}, {"name": "bn4c_branch2b/moving_mean", "shape": [256], "dtype": "float32", "quantization": {"dtype": "uint8", "min": -0.9588183283805847, "scale": 0.007319223880767822, "original_dtype": "float32"}}, {"name": "bn4c_branch2b/moving_variance", "shape": [256], "dtype": "float32", "quantization": {"dtype": "uint8", "min": 0.08332255482673645, "scale": 0.001503892272126441, "original_dtype": "float32"}}, {"name": "bn4c_branch2c/gamma", "shape": [1024], "dtype": "float32", "quantization": {"dtype": "uint8", "min": 0.0488269217312336, "scale": 0.0054936423459473775, "original_dtype": "float32"}}, {"name": "bn4c_branch2c/beta", "shape": [1024], "dtype": "float32", "quantization": {"dtype": "uint8", "min": -1.1985715249005486, "scale": 0.007009190204096775, "original_dtype": "float32"}}, {"name": "bn4c_branch2c/moving_mean", "shape": [1024], "dtype": "float32", "quantization": {"dtype": "uint8", "min": -0.30009238521258036, "scale": 0.0025217847496855493, "original_dtype": "float32"}}, {"name": "bn4c_branch2c/moving_variance", "shape": [1024], "dtype": "float32", "quantization": {"dtype": "uint8", "min": 0.0017046096036210656, "scale": 0.0003771924263085513, "original_dtype": "float32"}}, {"name": "bn4d_branch2a/gamma", "shape": [256], "dtype": "float32", "quantization": {"dtype": "uint8", "min": 0.4422333836555481, "scale": 0.003570565756629495, "original_dtype": "float32"}}, {"name": "bn4d_branch2a/beta", "shape": [256], "dtype": "float32", "quantization": {"dtype": "uint8", "min": -2.320081736527237, "scale": 0.0111008695527619, "original_dtype": "float32"}}, {"name": "bn4d_branch2a/moving_mean", "shape": [256], "dtype": "float32", "quantization": {"dtype": "uint8", "min": -1.940459681959713, "scale": 0.011152067137699501, "original_dtype": "float32"}}, {"name": "bn4d_branch2a/moving_variance", "shape": [256], "dtype": "float32", "quantization": {"dtype": "uint8", "min": 0.3172389268875122, "scale": 0.009561955227571375, "original_dtype": "float32"}}, {"name": "bn4d_branch2b/gamma", "shape": [256], "dtype": "float32", "quantization": {"dtype": "uint8", "min": 0.5292788743972778, "scale": 0.005529026424183565, "original_dtype": "float32"}}, {"name": "bn4d_branch2b/beta", "shape": [256], "dtype": "float32", "quantization": {"dtype": "uint8", "min": -1.6094315566268622, "scale": 0.009357160212946873, "original_dtype": "float32"}}, {"name": "bn4d_branch2b/moving_mean", "shape": [256], "dtype": "float32", "quantization": {"dtype": "uint8", "min": -1.1220225927876493, "scale": 0.008565057960211063, "original_dtype": "float32"}}, {"name": "bn4d_branch2b/moving_variance", "shape": [256], "dtype": "float32", "quantization": {"dtype": "uint8", "min": 0.07131592184305191, "scale": 0.0023700637852444367, "original_dtype": "float32"}}, {"name": "bn4d_branch2c/gamma", "shape": [1024], "dtype": "float32", "quantization": {"dtype": "uint8", "min": -0.039588720482938426, "scale": 0.006598120080489738, "original_dtype": "float32"}}, {"name": "bn4d_branch2c/beta", "shape": [1024], "dtype": "float32", "quantization": {"dtype": "uint8", "min": -1.4840727693894329, "scale": 0.007169433668547985, "original_dtype": "float32"}}, {"name": "bn4d_branch2c/moving_mean", "shape": [1024], "dtype": "float32", "quantization": {"dtype": "uint8", "min": -0.3640890156521516, "scale": 0.0029843361938700955, "original_dtype": "float32"}}, {"name": "bn4d_branch2c/moving_variance", "shape": [1024], "dtype": "float32", "quantization": {"dtype": "uint8", "min": 8.513742068316787e-05, "scale": 0.00041752554180657527, "original_dtype": "float32"}}, {"name": "bn4e_branch2a/gamma", "shape": [256], "dtype": "float32", "quantization": {"dtype": "uint8", "min": 0.4382966458797455, "scale": 0.003950978844773536, "original_dtype": "float32"}}, {"name": "bn4e_branch2a/beta", "shape": [256], "dtype": "float32", "quantization": {"dtype": "uint8", "min": -2.514182472930235, "scale": 0.012029581210192512, "original_dtype": "float32"}}, {"name": "bn4e_branch2a/moving_mean", "shape": [256], "dtype": "float32", "quantization": {"dtype": "uint8", "min": -2.5767556386835433, "scale": 0.01244809487286736, "original_dtype": "float32"}}, {"name": "bn4e_branch2a/moving_variance", "shape": [256], "dtype": "float32", "quantization": {"dtype": "uint8", "min": 0.4042649567127228, "scale": 0.005722995248495364, "original_dtype": "float32"}}, {"name": "bn4e_branch2b/gamma", "shape": [256], "dtype": "float32", "quantization": {"dtype": "uint8", "min": 0.650596022605896, "scale": 0.004735287030537923, "original_dtype": "float32"}}, {"name": "bn4e_branch2b/beta", "shape": [256], "dtype": "float32", "quantization": {"dtype": "uint8", "min": -1.587631996940164, "scale": 0.008820177760778689, "original_dtype": "float32"}}, {"name": "bn4e_branch2b/moving_mean", "shape": [256], "dtype": "float32", "quantization": {"dtype": "uint8", "min": -0.4664080012078379, "scale": 0.0037613548484503054, "original_dtype": "float32"}}, {"name": "bn4e_branch2b/moving_variance", "shape": [256], "dtype": "float32", "quantization": {"dtype": "uint8", "min": 0.05927896872162819, "scale": 0.0011478822459192837, "original_dtype": "float32"}}, {"name": "bn4e_branch2c/gamma", "shape": [1024], "dtype": "float32", "quantization": {"dtype": "uint8", "min": -0.0, "scale": 0.005889593064328473, "original_dtype": "float32"}}, {"name": "bn4e_branch2c/beta", "shape": [1024], "dtype": "float32", "quantization": {"dtype": "uint8", "min": -1.1102164591059966, "scale": 0.006853188019172818, "original_dtype": "float32"}}, {"name": "bn4e_branch2c/moving_mean", "shape": [1024], "dtype": "float32", "quantization": {"dtype": "uint8", "min": -0.582913356668809, "scale": 0.006476815074097877, "original_dtype": "float32"}}, {"name": "bn4e_branch2c/moving_variance", "shape": [1024], "dtype": "float32", "quantization": {"dtype": "uint8", "min": 0.0003081673930864781, "scale": 0.000678920701223736, "original_dtype": "float32"}}, {"name": "bn4f_branch2a/gamma", "shape": [256], "dtype": "float32", "quantization": {"dtype": "uint8", "min": 0.4254356026649475, "scale": 0.004397019451739741, "original_dtype": "float32"}}, {"name": "bn4f_branch2a/beta", "shape": [256], "dtype": "float32", "quantization": {"dtype": "uint8", "min": -1.973412836299223, "scale": 0.010963404646106794, "original_dtype": "float32"}}, {"name": "bn4f_branch2a/moving_mean", "shape": [256], "dtype": "float32", "quantization": {"dtype": "uint8", "min": -1.1526873623623568, "scale": 0.008175087676328772, "original_dtype": "float32"}}, {"name": "bn4f_branch2a/moving_variance", "shape": [256], "dtype": "float32", "quantization": {"dtype": "uint8", "min": 0.41855305433273315, "scale": 0.006663093613643273, "original_dtype": "float32"}}, {"name": "bn4f_branch2b/gamma", "shape": [256], "dtype": "float32", "quantization": {"dtype": "uint8", "min": 0.6498118042945862, "scale": 0.00898982660443175, "original_dtype": "float32"}}, {"name": "bn4f_branch2b/beta", "shape": [256], "dtype": "float32", "quantization": {"dtype": "uint8", "min": -1.089297287604388, "scale": 0.007310720051036161, "original_dtype": "float32"}}, {"name": "bn4f_branch2b/moving_mean", "shape": [256], "dtype": "float32", "quantization": {"dtype": "uint8", "min": -0.9005843653398401, "scale": 0.005525057456072639, "original_dtype": "float32"}}, {"name": "bn4f_branch2b/moving_variance", "shape": [256], "dtype": "float32", "quantization": {"dtype": "uint8", "min": 0.08530989289283752, "scale": 0.003451955201579075, "original_dtype": "float32"}}, {"name": "bn4f_branch2c/gamma", "shape": [1024], "dtype": "float32", "quantization": {"dtype": "uint8", "min": 0.0042371368035674095, "scale": 0.00776500202642352, "original_dtype": "float32"}}, {"name": "bn4f_branch2c/beta", "shape": [1024], "dtype": "float32", "quantization": {"dtype": "uint8", "min": -1.6410384411905325, "scale": 0.01131750649096919, "original_dtype": "float32"}}, {"name": "bn4f_branch2c/moving_mean", "shape": [1024], "dtype": "float32", "quantization": {"dtype": "uint8", "min": -0.6195256667978624, "scale": 0.0044893164260714664, "original_dtype": "float32"}}, {"name": "bn4f_branch2c/moving_variance", "shape": [1024], "dtype": "float32", "quantization": {"dtype": "uint8", "min": 0.0005924173747189343, "scale": 0.004464478793270959, "original_dtype": "float32"}}, {"name": "bn5a_branch1/gamma", "shape": [2048], "dtype": "float32", "quantization": {"dtype": "uint8", "min": 0.26086774468421936, "scale": 0.016916715748169844, "original_dtype": "float32"}}, {"name": "bn5a_branch1/beta", "shape": [2048], "dtype": "float32", "quantization": {"dtype": "uint8", "min": -1.805515895871555, "scale": 0.010942520581039727, "original_dtype": "float32"}}, {"name": "bn5a_branch1/moving_mean", "shape": [2048], "dtype": "float32", "quantization": {"dtype": "uint8", "min": -1.4655994840696747, "scale": 0.01510927303164613, "original_dtype": "float32"}}, {"name": "bn5a_branch1/moving_variance", "shape": [2048], "dtype": "float32", "quantization": {"dtype": "uint8", "min": 0.08673897385597229, "scale": 0.003595751757715263, "original_dtype": "float32"}}, {"name": "bn5a_branch2a/gamma", "shape": [512], "dtype": "float32", "quantization": {"dtype": "uint8", "min": 0.5353331565856934, "scale": 0.004153029591429467, "original_dtype": "float32"}}, {"name": "bn5a_branch2a/beta", "shape": [512], "dtype": "float32", "quantization": {"dtype": "uint8", "min": -1.755297362804413, "scale": 0.008015056451161703, "original_dtype": "float32"}}, {"name": "bn5a_branch2a/moving_mean", "shape": [512], "dtype": "float32", "quantization": {"dtype": "uint8", "min": -2.4887769909466018, "scale": 0.014554251409044454, "original_dtype": "float32"}}, {"name": "bn5a_branch2a/moving_variance", "shape": [512], "dtype": "float32", "quantization": {"dtype": "uint8", "min": 0.480496883392334, "scale": 0.00536352138893277, "original_dtype": "float32"}}, {"name": "bn5a_branch2b/gamma", "shape": [512], "dtype": "float32", "quantization": {"dtype": "uint8", "min": 0.4557577669620514, "scale": 0.004259940572813445, "original_dtype": "float32"}}, {"name": "bn5a_branch2b/beta", "shape": [512], "dtype": "float32", "quantization": {"dtype": "uint8", "min": -1.8243408203125002, "scale": 0.0104248046875, "original_dtype": "float32"}}, {"name": "bn5a_branch2b/moving_mean", "shape": [512], "dtype": "float32", "quantization": {"dtype": "uint8", "min": -2.401713337617762, "scale": 0.013196227129767923, "original_dtype": "float32"}}, {"name": "bn5a_branch2b/moving_variance", "shape": [512], "dtype": "float32", "quantization": {"dtype": "uint8", "min": 0.1678875833749771, "scale": 0.0036803642324372836, "original_dtype": "float32"}}, {"name": "bn5a_branch2c/gamma", "shape": [2048], "dtype": "float32", "quantization": {"dtype": "uint8", "min": 0.8884433507919312, "scale": 0.010211021292443369, "original_dtype": "float32"}}, {"name": "bn5a_branch2c/beta", "shape": [2048], "dtype": "float32", "quantization": {"dtype": "uint8", "min": -1.805515895871555, "scale": 0.010942520581039727, "original_dtype": "float32"}}, {"name": "bn5a_branch2c/moving_mean", "shape": [2048], "dtype": "float32", "quantization": {"dtype": "uint8", "min": -0.5905624913234336, "scale": 0.005004766875622319, "original_dtype": "float32"}}, {"name": "bn5a_branch2c/moving_variance", "shape": [2048], "dtype": "float32", "quantization": {"dtype": "uint8", "min": 0.007425349205732346, "scale": 0.0007112999318861494, "original_dtype": "float32"}}, {"name": "bn5b_branch2a/gamma", "shape": [512], "dtype": "float32", "quantization": {"dtype": "uint8", "min": 0.39774012565612793, "scale": 0.004044647777781767, "original_dtype": "float32"}}, {"name": "bn5b_branch2a/beta", "shape": [512], "dtype": "float32", "quantization": {"dtype": "uint8", "min": -1.382709545247695, "scale": 0.00709081818075741, "original_dtype": "float32"}}, {"name": "bn5b_branch2a/moving_mean", "shape": [512], "dtype": "float32", "quantization": {"dtype": "uint8", "min": -4.960612519582113, "scale": 0.035687859853108725, "original_dtype": "float32"}}, {"name": "bn5b_branch2a/moving_variance", "shape": [512], "dtype": "float32", "quantization": {"dtype": "uint8", "min": 1.6245973110198975, "scale": 0.02873849027297076, "original_dtype": "float32"}}, {"name": "bn5b_branch2b/gamma", "shape": [512], "dtype": "float32", "quantization": {"dtype": "uint8", "min": 0.34943196177482605, "scale": 0.004707350099787993, "original_dtype": "float32"}}, {"name": "bn5b_branch2b/beta", "shape": [512], "dtype": "float32", "quantization": {"dtype": "uint8", "min": -1.863582505198086, "scale": 0.010772153209237492, "original_dtype": "float32"}}, {"name": "bn5b_branch2b/moving_mean", "shape": [512], "dtype": "float32", "quantization": {"dtype": "uint8", "min": -1.2159251255147596, "scale": 0.008385690520791446, "original_dtype": "float32"}}, {"name": "bn5b_branch2b/moving_variance", "shape": [512], "dtype": "float32", "quantization": {"dtype": "uint8", "min": 0.09389364719390869, "scale": 0.0011790023130529067, "original_dtype": "float32"}}, {"name": "bn5b_branch2c/gamma", "shape": [2048], "dtype": "float32", "quantization": {"dtype": "uint8", "min": 0.5736075043678284, "scale": 0.00891353172414443, "original_dtype": "float32"}}, {"name": "bn5b_branch2c/beta", "shape": [2048], "dtype": "float32", "quantization": {"dtype": "uint8", "min": -2.6330751645798776, "scale": 0.012479029216018378, "original_dtype": "float32"}}, {"name": "bn5b_branch2c/moving_mean", "shape": [2048], "dtype": "float32", "quantization": {"dtype": "uint8", "min": -0.4197201464690414, "scale": 0.004465107941160015, "original_dtype": "float32"}}, {"name": "bn5b_branch2c/moving_variance", "shape": [2048], "dtype": "float32", "quantization": {"dtype": "uint8", "min": 0.003206176683306694, "scale": 0.00021551924155038945, "original_dtype": "float32"}}, {"name": "bn5c_branch2a/gamma", "shape": [512], "dtype": "float32", "quantization": {"dtype": "uint8", "min": 0.36630937457084656, "scale": 0.0034622006556567025, "original_dtype": "float32"}}, {"name": "bn5c_branch2a/beta", "shape": [512], "dtype": "float32", "quantization": {"dtype": "uint8", "min": -1.6685365265490961, "scale": 0.00948032117357441, "original_dtype": "float32"}}, {"name": "bn5c_branch2a/moving_mean", "shape": [512], "dtype": "float32", "quantization": {"dtype": "uint8", "min": -2.134944433324477, "scale": 0.029245814155129824, "original_dtype": "float32"}}, {"name": "bn5c_branch2a/moving_variance", "shape": [512], "dtype": "float32", "quantization": {"dtype": "uint8", "min": 1.9676108360290527, "scale": 0.07313845952351888, "original_dtype": "float32"}}, {"name": "bn5c_branch2b/gamma", "shape": [512], "dtype": "float32", "quantization": {"dtype": "uint8", "min": 0.5163489580154419, "scale": 0.0032090930377735812, "original_dtype": "float32"}}, {"name": "bn5c_branch2b/beta", "shape": [512], "dtype": "float32", "quantization": {"dtype": "uint8", "min": -1.8670849800109863, "scale": 0.011968493461608887, "original_dtype": "float32"}}, {"name": "bn5c_branch2b/moving_mean", "shape": [512], "dtype": "float32", "quantization": {"dtype": "uint8", "min": -0.6359181035967434, "scale": 0.0041026974425596345, "original_dtype": "float32"}}, {"name": "bn5c_branch2b/moving_variance", "shape": [512], "dtype": "float32", "quantization": {"dtype": "uint8", "min": 0.06622914969921112, "scale": 0.00113393857198603, "original_dtype": "float32"}}, {"name": "bn5c_branch2c/gamma", "shape": [2048], "dtype": "float32", "quantization": {"dtype": "uint8", "min": 0.4347835183143616, "scale": 0.010346646168652702, "original_dtype": "float32"}}, {"name": "bn5c_branch2c/beta", "shape": [2048], "dtype": "float32", "quantization": {"dtype": "uint8", "min": -3.884742021560669, "scale": 0.014257884726804846, "original_dtype": "float32"}}, {"name": "bn5c_branch2c/moving_mean", "shape": [2048], "dtype": "float32", "quantization": {"dtype": "uint8", "min": -0.246233778256996, "scale": 0.0012959672539841894, "original_dtype": "float32"}}, {"name": "bn5c_branch2c/moving_variance", "shape": [2048], "dtype": "float32", "quantization": {"dtype": "uint8", "min": 0.0013256424572318792, "scale": 0.00016640974847855522, "original_dtype": "float32"}}, {"name": "bn_conv1/gamma", "shape": [64], "dtype": "float32", "quantization": {"dtype": "uint8", "min": 0.5126429200172424, "scale": 0.008454681611528583, "original_dtype": "float32"}}, {"name": "bn_conv1/beta", "shape": [64], "dtype": "float32", "quantization": {"dtype": "uint8", "min": -2.6492998179267437, "scale": 0.03532399757235658, "original_dtype": "float32"}}, {"name": "bn_conv1/moving_mean", "shape": [64], "dtype": "float32", "quantization": {"dtype": "uint8", "min": -3.5301476338330438, "scale": 0.026947691861320944, "original_dtype": "float32"}}, {"name": "bn_conv1/moving_variance", "shape": [64], "dtype": "float32", "quantization": {"dtype": "uint8", "min": 184.10784912109375, "scale": 327.1789275524663, "original_dtype": "float32"}}, {"name": "pyramid_classification_0/kernel", "shape": [3, 3, 256, 256], "dtype": "float32", "quantization": {"dtype": "uint8", "min": -0.05009611007921836, "scale": 0.00040728544779852327, "original_dtype": "float32"}}, {"name": "pyramid_classification_0/bias", "shape": [256], "dtype": "float32", "quantization": {"dtype": "uint8", "min": -0.0017717421721374872, "scale": 2.531060245910696e-05, "original_dtype": "float32"}}, {"name": "pyramid_classification_1/kernel", "shape": [3, 3, 256, 256], "dtype": "float32", "quantization": {"dtype": "uint8", "min": -0.05043303951913235, "scale": 0.0003879464578394796, "original_dtype": "float32"}}, {"name": "pyramid_classification_1/bias", "shape": [256], "dtype": "float32", "quantization": {"dtype": "uint8", "min": -0.0023233334031686477, "scale": 3.808743283883029e-05, "original_dtype": "float32"}}, {"name": "pyramid_classification_2/kernel", "shape": [3, 3, 256, 256], "dtype": "float32", "quantization": {"dtype": "uint8", "min": -0.046061320865855494, "scale": 0.00036556603861790076, "original_dtype": "float32"}}, {"name": "pyramid_classification_2/bias", "shape": [256], "dtype": "float32", "quantization": {"dtype": "uint8", "min": -0.0023256064127838497, "scale": 4.387936627894056e-05, "original_dtype": "float32"}}, {"name": "pyramid_classification_3/kernel", "shape": [3, 3, 256, 256], "dtype": "float32", "quantization": {"dtype": "uint8", "min": -0.057170962849084066, "scale": 0.0004026124144301695, "original_dtype": "float32"}}, {"name": "pyramid_classification_3/bias", "shape": [256], "dtype": "float32", "quantization": {"dtype": "uint8", "min": -0.00766305284501583, "scale": 7.161731630855915e-05, "original_dtype": "float32"}}, {"name": "pyramid_classification/kernel", "shape": [3, 3, 256, 9], "dtype": "float32", "quantization": {"dtype": "uint8", "min": -0.06214390397071839, "scale": 0.0004061693069981594, "original_dtype": "float32"}}, {"name": "pyramid_classification/bias", "shape": [9], "dtype": "float32", "quantization": {"dtype": "uint8", "min": -4.580931663513184, "scale": 4.0740592806947e-05, "original_dtype": "float32"}}, {"name": "conv1/kernel", "shape": [7, 7, 3, 64], "dtype": "float32", "quantization": {"dtype": "uint8", "min": -0.6761261353305742, "scale": 0.005409009082644594, "original_dtype": "float32"}}, {"name": "pyramid_iou_0/kernel", "shape": [3, 3, 256, 256], "dtype": "float32", "quantization": {"dtype": "uint8", "min": -0.050192198858541606, "scale": 0.00039835078459160003, "original_dtype": "float32"}}, {"name": "pyramid_iou_0/bias", "shape": [256], "dtype": "float32", "quantization": {"dtype": "uint8", "min": -0.0018006219980580842, "scale": 1.5389931607334053e-05, "original_dtype": "float32"}}, {"name": "pyramid_iou_1/kernel", "shape": [3, 3, 256, 256], "dtype": "float32", "quantization": {"dtype": "uint8", "min": -0.06304764221696292, "scale": 0.00043481132563422706, "original_dtype": "float32"}}, {"name": "pyramid_iou_1/bias", "shape": [256], "dtype": "float32", "quantization": {"dtype": "uint8", "min": -0.001485768310250897, "scale": 3.0321802250018306e-05, "original_dtype": "float32"}}, {"name": "pyramid_iou_2/kernel", "shape": [3, 3, 256, 256], "dtype": "float32", "quantization": {"dtype": "uint8", "min": -0.049289139929939725, "scale": 0.0004007247148775587, "original_dtype": "float32"}}, {"name": "pyramid_iou_2/bias", "shape": [256], "dtype": "float32", "quantization": {"dtype": "uint8", "min": -0.0010563181055819287, "scale": 3.912289279933069e-05, "original_dtype": "float32"}}, {"name": "pyramid_iou_3/kernel", "shape": [3, 3, 256, 256], "dtype": "float32", "quantization": {"dtype": "uint8", "min": -0.055113406041089226, "scale": 0.00039937250754412484, "original_dtype": "float32"}}, {"name": "pyramid_iou_3/bias", "shape": [256], "dtype": "float32", "quantization": {"dtype": "uint8", "min": -0.0016768799199923582, "scale": 5.409290064491478e-05, "original_dtype": "float32"}}, {"name": "pyramid_iou/kernel", "shape": [3, 3, 256, 9], "dtype": "float32", "quantization": {"dtype": "uint8", "min": -0.0564955079964563, "scale": 0.0004216082686302709, "original_dtype": "float32"}}, {"name": "pyramid_iou/bias", "shape": [9], "dtype": "float32", "quantization": {"dtype": "uint8", "min": 0.007020940072834492, "scale": 1.5908980048170277e-05, "original_dtype": "float32"}}, {"name": "pyramid_regression_0/kernel", "shape": [3, 3, 256, 256], "dtype": "float32", "quantization": {"dtype": "uint8", "min": -0.04627260033990823, "scale": 0.00037928360934351006, "original_dtype": "float32"}}, {"name": "pyramid_regression_0/bias", "shape": [256], "dtype": "float32", "quantization": {"dtype": "uint8", "min": -0.00520777293097447, "scale": 5.26037669795401e-05, "original_dtype": "float32"}}, {"name": "pyramid_regression_1/kernel", "shape": [3, 3, 256, 256], "dtype": "float32", "quantization": {"dtype": "uint8", "min": -0.05231920227992768, "scale": 0.00041855361823942146, "original_dtype": "float32"}}, {"name": "pyramid_regression_1/bias", "shape": [256], "dtype": "float32", "quantization": {"dtype": "uint8", "min": -0.007382642176440533, "scale": 0.00011357911040677743, "original_dtype": "float32"}}, {"name": "pyramid_regression_2/kernel", "shape": [3, 3, 256, 256], "dtype": "float32", "quantization": {"dtype": "uint8", "min": -0.05585959829828318, "scale": 0.0004077342941480524, "original_dtype": "float32"}}, {"name": "pyramid_regression_2/bias", "shape": [256], "dtype": "float32", "quantization": {"dtype": "uint8", "min": -0.01431193275413677, "scale": 0.00017243292474863577, "original_dtype": "float32"}}, {"name": "pyramid_regression_3/kernel", "shape": [3, 3, 256, 256], "dtype": "float32", "quantization": {"dtype": "uint8", "min": -0.06636288060861475, "scale": 0.0004740205757758197, "original_dtype": "float32"}}, {"name": "pyramid_regression_3/bias", "shape": [256], "dtype": "float32", "quantization": {"dtype": "uint8", "min": -0.0029627120633627857, "scale": 0.00010581114512009948, "original_dtype": "float32"}}, {"name": "pyramid_regression/kernel", "shape": [3, 3, 256, 36], "dtype": "float32", "quantization": {"dtype": "uint8", "min": -0.10120623251971077, "scale": 0.0008433852709975897, "original_dtype": "float32"}}, {"name": "pyramid_regression/bias", "shape": [36], "dtype": "float32", "quantization": {"dtype": "uint8", "min": -0.0064827930510920635, "scale": 5.1450738500730665e-05, "original_dtype": "float32"}}, {"name": "res2a_branch1/kernel", "shape": [1, 1, 64, 256], "dtype": "float32", "quantization": {"dtype": "uint8", "min": -0.7797057151794433, "scale": 0.006607675552368164, "original_dtype": "float32"}}, {"name": "res2a_branch2a/kernel", "shape": [1, 1, 64, 64], "dtype": "float32", "quantization": {"dtype": "uint8", "min": -0.7235270652116513, "scale": 0.004358596778383442, "original_dtype": "float32"}}, {"name": "res2a_branch2b/kernel", "shape": [3, 3, 64, 64], "dtype": "float32", "quantization": {"dtype": "uint8", "min": -0.39310642691219555, "scale": 0.002978078991759057, "original_dtype": "float32"}}, {"name": "res2a_branch2c/kernel", "shape": [1, 1, 64, 256], "dtype": "float32", "quantization": {"dtype": "uint8", "min": -0.3975732962290446, "scale": 0.0029233330605076806, "original_dtype": "float32"}}, {"name": "res2b_branch2a/kernel", "shape": [1, 1, 256, 64], "dtype": "float32", "quantization": {"dtype": "uint8", "min": -0.3150552949484657, "scale": 0.0021003686329897713, "original_dtype": "float32"}}, {"name": "res2b_branch2b/kernel", "shape": [3, 3, 64, 64], "dtype": "float32", "quantization": {"dtype": "uint8", "min": -0.23858412013334385, "scale": 0.0022091122234568876, "original_dtype": "float32"}}, {"name": "res2b_branch2c/kernel", "shape": [1, 1, 64, 256], "dtype": "float32", "quantization": {"dtype": "uint8", "min": -0.24241258864309276, "scale": 0.0020543439715516336, "original_dtype": "float32"}}, {"name": "res2c_branch2a/kernel", "shape": [1, 1, 256, 64], "dtype": "float32", "quantization": {"dtype": "uint8", "min": -0.21176162467283363, "scale": 0.0018739966785206515, "original_dtype": "float32"}}, {"name": "res2c_branch2b/kernel", "shape": [3, 3, 64, 64], "dtype": "float32", "quantization": {"dtype": "uint8", "min": -0.21399116410928615, "scale": 0.001658846233405319, "original_dtype": "float32"}}, {"name": "res2c_branch2c/kernel", "shape": [1, 1, 64, 256], "dtype": "float32", "quantization": {"dtype": "uint8", "min": -0.2744150479634603, "scale": 0.0024501343568166098, "original_dtype": "float32"}}, {"name": "res3a_branch1/kernel", "shape": [1, 1, 256, 512], "dtype": "float32", "quantization": {"dtype": "uint8", "min": -0.46559261410844094, "scale": 0.004351332842134962, "original_dtype": "float32"}}, {"name": "res3a_branch2a/kernel", "shape": [1, 1, 256, 128], "dtype": "float32", "quantization": {"dtype": "uint8", "min": -0.33070687406203325, "scale": 0.0024865178500904756, "original_dtype": "float32"}}, {"name": "res3a_branch2b/kernel", "shape": [3, 3, 128, 128], "dtype": "float32", "quantization": {"dtype": "uint8", "min": -0.38441318729344537, "scale": 0.002979947188321282, "original_dtype": "float32"}}, {"name": "res3a_branch2c/kernel", "shape": [1, 1, 128, 512], "dtype": "float32", "quantization": {"dtype": "uint8", "min": -0.37160483598709104, "scale": 0.003149193525314331, "original_dtype": "float32"}}, {"name": "res3b_branch2a/kernel", "shape": [1, 1, 512, 128], "dtype": "float32", "quantization": {"dtype": "uint8", "min": -0.16613973940120025, "scale": 0.0014322391327689676, "original_dtype": "float32"}}, {"name": "res3b_branch2b/kernel", "shape": [3, 3, 128, 128], "dtype": "float32", "quantization": {"dtype": "uint8", "min": -0.1849822444074294, "scale": 0.0014013806394502228, "original_dtype": "float32"}}, {"name": "res3b_branch2c/kernel", "shape": [1, 1, 128, 512], "dtype": "float32", "quantization": {"dtype": "uint8", "min": -0.3452114431297078, "scale": 0.0026760576986799055, "original_dtype": "float32"}}, {"name": "res3c_branch2a/kernel", "shape": [1, 1, 512, 128], "dtype": "float32", "quantization": {"dtype": "uint8", "min": -0.3321713496656979, "scale": 0.002722715980866376, "original_dtype": "float32"}}, {"name": "res3c_branch2b/kernel", "shape": [3, 3, 128, 128], "dtype": "float32", "quantization": {"dtype": "uint8", "min": -0.3243054310480754, "scale": 0.0027252557230930704, "original_dtype": "float32"}}, {"name": "res3c_branch2c/kernel", "shape": [1, 1, 128, 512], "dtype": "float32", "quantization": {"dtype": "uint8", "min": -0.2915613744773117, "scale": 0.0020532491160374063, "original_dtype": "float32"}}, {"name": "res3d_branch2a/kernel", "shape": [1, 1, 512, 128], "dtype": "float32", "quantization": {"dtype": "uint8", "min": -0.3049048241447, "scale": 0.002583939187666949, "original_dtype": "float32"}}, {"name": "res3d_branch2b/kernel", "shape": [3, 3, 128, 128], "dtype": "float32", "quantization": {"dtype": "uint8", "min": -0.26870327025067575, "scale": 0.0018790438479068233, "original_dtype": "float32"}}, {"name": "res3d_branch2c/kernel", "shape": [1, 1, 128, 512], "dtype": "float32", "quantization": {"dtype": "uint8", "min": -0.28236624025831036, "scale": 0.0022059862520180497, "original_dtype": "float32"}}, {"name": "res4a_branch1/kernel", "shape": [1, 1, 512, 1024], "dtype": "float32", "quantization": {"dtype": "uint8", "min": -0.3359449120128856, "scale": 0.0029468851930954877, "original_dtype": "float32"}}, {"name": "res4a_branch2a/kernel", "shape": [1, 1, 512, 256], "dtype": "float32", "quantization": {"dtype": "uint8", "min": -0.22365010252185896, "scale": 0.0022365010252185895, "original_dtype": "float32"}}, {"name": "res4a_branch2b/kernel", "shape": [3, 3, 256, 256], "dtype": "float32", "quantization": {"dtype": "uint8", "min": -0.27265952825546264, "scale": 0.0017820884199703441, "original_dtype": "float32"}}, {"name": "res4a_branch2c/kernel", "shape": [1, 1, 256, 1024], "dtype": "float32", "quantization": {"dtype": "uint8", "min": -0.3300852445995106, "scale": 0.002797332581351785, "original_dtype": "float32"}}, {"name": "res4b_branch2a/kernel", "shape": [1, 1, 1024, 256], "dtype": "float32", "quantization": {"dtype": "uint8", "min": -0.20050751251332902, "scale": 0.0017137394231908462, "original_dtype": "float32"}}, {"name": "res4b_branch2b/kernel", "shape": [3, 3, 256, 256], "dtype": "float32", "quantization": {"dtype": "uint8", "min": -0.4375839869181315, "scale": 0.002486272652943929, "original_dtype": "float32"}}, {"name": "res4b_branch2c/kernel", "shape": [1, 1, 256, 1024], "dtype": "float32", "quantization": {"dtype": "uint8", "min": -0.43895781040191645, "scale": 0.002869005296744552, "original_dtype": "float32"}}, {"name": "res4c_branch2a/kernel", "shape": [1, 1, 1024, 256], "dtype": "float32", "quantization": {"dtype": "uint8", "min": -0.38253390438416424, "scale": 0.002833584476919735, "original_dtype": "float32"}}, {"name": "res4c_branch2b/kernel", "shape": [3, 3, 256, 256], "dtype": "float32", "quantization": {"dtype": "uint8", "min": -0.16380112924996545, "scale": 0.001654556861110762, "original_dtype": "float32"}}, {"name": "res4c_branch2c/kernel", "shape": [1, 1, 256, 1024], "dtype": "float32", "quantization": {"dtype": "uint8", "min": -0.2893582012139114, "scale": 0.0021593895612978466, "original_dtype": "float32"}}, {"name": "res4d_branch2a/kernel", "shape": [1, 1, 1024, 256], "dtype": "float32", "quantization": {"dtype": "uint8", "min": -0.18854280394666334, "scale": 0.0019044727671380136, "original_dtype": "float32"}}, {"name": "res4d_branch2b/kernel", "shape": [3, 3, 256, 256], "dtype": "float32", "quantization": {"dtype": "uint8", "min": -0.20073503068849152, "scale": 0.001498022617078295, "original_dtype": "float32"}}, {"name": "res4d_branch2c/kernel", "shape": [1, 1, 256, 1024], "dtype": "float32", "quantization": {"dtype": "uint8", "min": -0.2008716649868909, "scale": 0.0017168518374947941, "original_dtype": "float32"}}, {"name": "res4e_branch2a/kernel", "shape": [1, 1, 1024, 256], "dtype": "float32", "quantization": {"dtype": "uint8", "min": -0.2221469786821627, "scale": 0.0020761399876837636, "original_dtype": "float32"}}, {"name": "res4e_branch2b/kernel", "shape": [3, 3, 256, 256], "dtype": "float32", "quantization": {"dtype": "uint8", "min": -0.14932864214859756, "scale": 0.0014497926422193939, "original_dtype": "float32"}}, {"name": "res4e_branch2c/kernel", "shape": [1, 1, 256, 1024], "dtype": "float32", "quantization": {"dtype": "uint8", "min": -0.17840906977653503, "scale": 0.0017491085272209317, "original_dtype": "float32"}}, {"name": "res4f_branch2a/kernel", "shape": [1, 1, 1024, 256], "dtype": "float32", "quantization": {"dtype": "uint8", "min": -0.15195809515083536, "scale": 0.0018760258660596959, "original_dtype": "float32"}}, {"name": "res4f_branch2b/kernel", "shape": [3, 3, 256, 256], "dtype": "float32", "quantization": {"dtype": "uint8", "min": -0.29324590388466326, "scale": 0.002238518350264605, "original_dtype": "float32"}}, {"name": "res4f_branch2c/kernel", "shape": [1, 1, 256, 1024], "dtype": "float32", "quantization": {"dtype": "uint8", "min": -0.22956810278051037, "scale": 0.002049715203397414, "original_dtype": "float32"}}, {"name": "res5a_branch1/kernel", "shape": [1, 1, 1024, 2048], "dtype": "float32", "quantization": {"dtype": "uint8", "min": -0.6204130850586237, "scale": 0.004249404692182354, "original_dtype": "float32"}}, {"name": "res5a_branch2a/kernel", "shape": [1, 1, 1024, 512], "dtype": "float32", "quantization": {"dtype": "uint8", "min": -0.18422624416211072, "scale": 0.0020244642215616563, "original_dtype": "float32"}}, {"name": "res5a_branch2b/kernel", "shape": [3, 3, 512, 512], "dtype": "float32", "quantization": {"dtype": "uint8", "min": -0.1764430085817973, "scale": 0.001746960481007894, "original_dtype": "float32"}}, {"name": "res5a_branch2c/kernel", "shape": [1, 1, 512, 2048], "dtype": "float32", "quantization": {"dtype": "uint8", "min": -0.33083798020493754, "scale": 0.0030076180018630684, "original_dtype": "float32"}}, {"name": "res5b_branch2a/kernel", "shape": [1, 1, 2048, 512], "dtype": "float32", "quantization": {"dtype": "uint8", "min": -0.31507325604850167, "scale": 0.003462343473060458, "original_dtype": "float32"}}, {"name": "res5b_branch2b/kernel", "shape": [3, 3, 512, 512], "dtype": "float32", "quantization": {"dtype": "uint8", "min": -0.2218710170072668, "scale": 0.001980991223279168, "original_dtype": "float32"}}, {"name": "res5b_branch2c/kernel", "shape": [1, 1, 512, 2048], "dtype": "float32", "quantization": {"dtype": "uint8", "min": -0.2022687155826419, "scale": 0.0018388065052967445, "original_dtype": "float32"}}, {"name": "res5c_branch2a/kernel", "shape": [1, 1, 2048, 512], "dtype": "float32", "quantization": {"dtype": "uint8", "min": -0.28886945528142594, "scale": 0.00313988538349376, "original_dtype": "float32"}}, {"name": "res5c_branch2b/kernel", "shape": [3, 3, 512, 512], "dtype": "float32", "quantization": {"dtype": "uint8", "min": -0.14368382622213924, "scale": 0.0011225298923604628, "original_dtype": "float32"}}, {"name": "res5c_branch2c/kernel", "shape": [1, 1, 512, 2048], "dtype": "float32", "quantization": {"dtype": "uint8", "min": -0.13753876031613818, "scale": 0.0017192345039517272, "original_dtype": "float32"}}]}]}